speech/assets/models/wakeword/hey_sage.tflite (tflite, 206976 bytes, 9 tensors)

arith.constant f4 [1, 32]
0.13928379 -0.020177234 -0.02235796 -0.32680428 -0.33387852 0.0710182 0.11746277 0.16184789
0.13297525 0.14927001 0.011343846 0.17759988 -0.3292874 0.13902502 -0.33640423 -0.13421166
0.18315287 -0.3334251 -0.34305078 -0.24668296 -0.309477 -0.14430892 0.19669661 0.054322988
-0.38145643 0.07757711 0.011540012 -0.34025997 -0.34710807 0.12723811 -0.330363 0.07679338
00000000: 69a0 0e3e ba4a a5bc 0a28 b7bc e452 a7be
00000010: 20f2 aabe fd71 913d 5290 f03d 74bb 253e
00000020: aa2a 083e 3dda 183e 8adb 393c bedc 353e
00000030: 5c98 a8be 935c 0e3e 2d3d acbe c86e 09be
00000040: 6d8c 3b3e b2b6 aabe 5aa4 afbe 759a 7cbe
00000050: c573 9ebe b8c5 13be d66a 493e c881 5e3d
00000060: 424e c3be bfe0 9e3d 5212 3d3c 8e36 aebe
00000070: 26b8 b1be b54a 023e 5725 a9be d945 9d3d

arith.constant1 f4 [32, 32]
-0.01012752 -0.12012179 0.004984808 -0.10827656 0.1030404 0.11963099 0.15917404 0.1405512
-0.09383545 -0.00530367 0.0376612 0.15269072 -0.043274883 0.039374575 -0.16768074 0.021120211
-0.04575798 0.07867426 -0.13923454 0.031888645 -0.16241296 -0.14772166 0.18715505 0.12798408
-0.09925171 0.01992372 -0.08587189 0.03369502 -0.14699012 0.12739058 0.112208985 -0.036778904
-0.14429128 0.12178103 0.010923733 0.041966446 0.10270698 0.063460216 -0.07153807 0.16537693
0.07046522 -0.092503354 -0.035059832 0.038389914 0.12025181 -0.08893436 -0.13270509 0.041746
0.099579565 -0.11253853 -0.15952297 -0.10178944 0.102192715 -0.015732953 -0.09900963 -0.013858378
-0.088347286 -0.12562464 -0.01042433 0.091380455 0.11638512 0.16969122 -0.0745404 0.02961401
0.038481418 0.10175224 0.09240219 -0.07472192 0.119425654 -0.16592896 0.020818759 -0.07736978
0.047035158 -0.08710645 0.051153254 -0.12820694 -0.020626154 0.13612857 0.16123135 0.024862934
0.15428138 -0.006195406 -0.18173961 -0.03140437 -0.035965793 0.0052817413 0.10463164 -0.16462296
0.17074665 -0.13074236 -0.13361359 -0.122304276 0.040777035 0.010884619 -0.011284051 0.054636918
-0.112948954 -0.15178883 -0.07485793 0.15019575 -0.031265263 -0.047094412 0.04519186 0.06895717
0.18702772 0.038347196 -0.072460845 -0.04982608 -0.14177273 -8.386892e-05 -0.087057814 0.004612024
-0.055808444 -0.0122699905 0.121545315 0.11021016 0.03757282 0.124863625 -0.10052763 0.037901513
0.08341748 0.048222095 -0.013166736 0.063281834 0.1614395 0.1636128 0.14835855 -0.099504165
-0.07579043 0.02584452 0.14483751 0.0638852 0.118397236 0.023251683 0.15384245 -0.007895907
0.028733337 0.04782298 0.11269506 -0.1630379 -0.06622573 0.1524589 0.08056383 -0.12987489
-0.11249795 0.14665899 0.108723186 0.01650373 0.05688722 0.043815266 -0.14811261 -0.09309127
-0.061272837 0.16182366 -0.07947261 -0.08755052 -0.05213473 0.01738878 -0.093170434 0.036025327
0.14720425 -0.1006248 -0.105676174 -0.09476268 -0.0117664 0.06622285 -0.14068916 -0.05309679
0.046504714 -0.15245284 0.012298295 -0.11849793 -0.10911051 0.16248575 -0.03522454 0.043807816
-0.0077931792 -0.098378494 -0.16068017 0.020119093 0.08063245 -0.1205158 0.09957459 0.08862034
-0.07760559 -0.014221731 -0.0015369349 0.07751094 -0.0023915344 0.030774254 0.066823095 -0.046384487
0.15511551 0.098691404 0.17625271 0.13465774 -0.015813828 -0.011198836 -0.025118884 -0.099979036
-0.011567069 0.048679516 0.05218234 0.100167826 -0.008794894 -0.06012761 0.032163095 -0.07381953
0.09117412 0.17278889 -0.16892484 -0.1175064 -0.17619172 -0.014084932 -0.07890705 0.13328762
-0.092769876 0.12275634 0.030585479 0.06789872 0.07761985 -0.048322905 0.0071760686 0.119454816
0.09849204 -0.15625265 -0.1419898 -0.16954437 -0.004182218 0.10183946 0.041399073 -0.102048494
-0.008074373 0.04791261 -0.10598598 -0.09617855 -0.061585207 0.059888296 -0.113022745 0.16947977
-0.09581019 0.01267374 -0.18133661 0.10330142 -0.08306377 0.1800141 -0.022682501 0.039493483
0.07385535 -0.12576544 0.20055537 -0.09182882 0.020326087 -0.00026846956 -0.054389935 -0.10341811
00000000: e6ed 25bc 6a02 f6bd 9a57 a33b 1ac0 ddbd
00000010: d806 d33d 1801 f53d 85fe 223e a7ec 0f3e
00000020: cd2c c0bd 69ca adbb a142 1a3d f55a 1c3e
00000030: 0141 31bd 3c47 213d 80b4 2bbe 4b04 ad3c
00000040: b86c 3bbd f81f a13d 8093 0ebe ab9d 023d
00000050: 954f 26be 5944 17be 93a5 3f3e 420e 033e
00000060: 7b44 cbbd 1237 a33c 9add afbd ca03 0a3d
00000070: 9484 16be ad72 023e d3cd e53d 7aa5 16bd
00000080: 18c1 13be 5568 f93d 75f9 323c 02e5 2b3d
00000090: 0a58 d23d 6ef7 813d 8d82 92bd 9258 293e
000000a0: 1250 903d 6672 bdbd e69a 0fbd be3e 1d3d
000000b0: 9546 f63d 3823 b6bd d8e3 07be dbfd 2a3d
000000c0: 5ff0 cb3d 9a7a e6bd fd59 23be fb76 d0bd
000000d0: 6a4a d13d 65e2 80bc 90c5 cabd 400e 63bc
000000e0: 6cef b4bd bfa3 00be cfca 2abc ad25 bb3d
000000f0: 525b ee3d 89c3 2d3e a3a8 98bd 1599 f23c
00000100: b19e 1d3d 7a63 d03d 5c3d bd3d ce07 99bd
00000110: 7095 f43d 48e9 29be 1a8c aa3c 0c74 9ebd
00000120: f0a7 403d de64 b2bd 1386 513d ae48 03be
00000130: 2ef8 a8bc 4a65 0b3e d519 253e 5aad cb3c
00000140: f0fb 1d3e d502 cbbb f319 3abe dea1 00bd
00000150: de50 13bd 7512 ad3b 1d49 d63d ec92 28be
00000160: 36d8 2e3e 53e1 05be 00d2 08be aa7a fabd
00000170: d205 273d 6755 323c bee0 38bc f6ca 5f3d
00000180: c851 e7bd 886e 1bbe 1d4f 99bd eacc 193e
00000190: 0110 00bd 12e6 40bd 1a1b 393d 6b39 8d3d
000001a0: 3284 3f3e f311 1d3d 5a66 94bd 6f16 4cbd
000001b0: df2c 11be c9e2 afb8 5e4b b2bd 7620 973b
000001c0: 6597 64bd 1208 49bc c0ec f83d ddb5 e13d
000001d0: f5e5 193d 80b8 ff3d 6ee1 cdbd 9e3e 1b3d
000001e0: c9d6 aa3d 8884 453d 4bb9 57bc e899 813d
000001f0: 6550 253e 1d8a 273e 4eeb 173e d7c8 cbbd
00000200: 0338 9bbd e3b7 d33c 4950 143e 3ed6 823d
00000210: 407a f23d 507a be3c e088 1d3e d65d 01bc
00000220: 2d62 eb3c 07e2 433d abcc e63d 68f3 26be
00000230: 5ba1 87bd 301e 1c3e a6fe a43d ecfd 04be
00000240: 5365 e6bd c62d 163e 43aa de3d d532 873c
00000250: 9302 693d a377 333d d5aa 17be a3a6 bebd
00000260: 3af9 7abd 1ab5 253e 89c2 a2bd b04d b3bd
00000270: 3a8b 55bd ea72 8e3c 24d0 bebd 4b8f 133d
00000280: b6bc 163e 6014 cebd c06c d8bd f012 c2bd
00000290: dcc7 40bc d89f 873d d210 10be 057c 59bd
000002a0: ba7b 3e3d 991c 1cbe ca7e 493c 0baf f2bd
000002b0: 5575 dfbd aa62 263e 9b47 10bd d36f 333d
000002c0: ed5d ffbb aa7a c9bd 5889 24be ccd0 a43c
000002d0: a022 a53d fdd0 f6bd c3ed cb3d 957e b53d
000002e0: aeef 9ebd 4302 69bc fa72 c9ba 0ebe 9e3d
000002f0: 4abb 1cbb 4a1a fc3c 8cda 883d a9fd 3dbd
00000300: 9ad6 1e3e b81e ca3d 977b 343e b8e3 093e
00000310: 008c 81bc 537b 37bc 1ec6 cdbc cfc1 ccbd
00000320: ce83 3dbc 2c64 473d 26bd 553d ca24 cd3d
00000330: 7618 10bc 5e48 76bd 73bd 033d b22e 97bd
00000340: 7fb9 ba3d 92ef 303e a2fa 2cbe 32a7 f0bd
00000350: 9a6b 34be 7dc4 66bc 059a a1bd 8d7c 083e
00000360: 22fe bdbd ad67 fb3d 668e fa3c 7c0e 8b3d
00000370: 28f7 9e3d 3dee 45bd 3a25 eb3b baa4 f43d
00000380: 32b6 c93d b200 20be c665 11be 0a9d 2dbe
00000390: fd0a 89bb 3591 d03d 1392 293d cdfe d0bd
000003a0: 604a 04bc 0340 443d 2d0f d9bd 42f9 c4bd
000003b0: c540 7cbd 6e4d 753d 7878 e7bd 1b8c 2d3e
000003c0: 2238 c4bd 85a5 4f3c 4eb0 39be b28f d33d
000003d0: 561d aabd 9e55 383e a7d0 b9bc ebc3 213d
000003e0: 7941 973d a8c8 00be 635e 4d3e c010 bcbd
000003f0: e582 a63c 60c1 8cb9 fbc7 5ebd e0cc d3bd

arith.constant2 f4 [32, 1536]
-0.014169693 0.006785923 -0.012025013 -0.014728352 -0.0016290316 0.015026453 0.010248631 0.02668879
-0.021483604 0.025034022 0.0072374432 0.013284365 0.012306514 -0.010888326 -0.0038811981 0.03504647
0.0069184774 0.00923637 -0.033398263 -0.00248016 0.0023056946 -0.006590151 -0.02083786 0.044424303
-0.007465155 -0.01572726 0.010231236 -0.023673728 0.0003614772 -0.020468663 -0.002490403 0.0011843655
-0.015802022 0.014071015 -0.0006450401 0.019300928 0.015809646 0.01539789 -0.0071638883 0.011305237
-0.027353913 -0.0041024215 0.012597193 0.029220179 -0.010193825 -0.015246426 -0.015215157 -0.0022927416
-0.040001042 0.0028673494 -0.000564608 -0.030922472 0.008945522 0.023529688 0.0017888792 0.0014944597
0.0022440788 -0.017919958 0.024363574 -0.004518983 0.027603913 0.0016364219 -0.022050735 -0.0013231591
-0.007929732 -0.0002656837 0.030885035 -0.0128273815 0.019082326 -0.0115841655 0.008835131 -0.009668353
-0.019489385 0.0019281652 -0.004449712 -0.0029159477 0.0019274789 0.01765295 -0.020463208 0.0026796083
0.03435517 -0.0013661782 -0.026625808 0.019400053 -0.020867245 -0.023855545 0.011853517 0.004446799
-0.005382135 0.018467605 0.022656793 0.012583666 0.0011974024 -0.008149462 -0.029269895 -0.020413738
-0.01930981 -0.005889487 0.0013417313 -0.0004757073 -0.016873572 0.021895904 -0.02517632 -0.016458573
-0.019130168 -0.003834442 -0.014239758 0.007348365 -0.02357309 -0.015681665 -0.01572502 0.029744316
0.029038036 0.019225296 -0.024797376 -0.024486471 -0.0019265302 0.009572474 -0.012028834 0.0042616017
0.012678543 0.005021671 -0.012545374 -0.009428217 -0.027657628 0.024163766 0.019520853 -0.021833103
-0.003533731 -0.021684056 0.016300147 0.013990708 -0.01719917 0.00612582 -0.007891655 -0.010218685
-0.02061606 0.02272749 -0.011642814 -0.018351037 0.025816217 0.01990654 0.0135479495 -0.010578284
-0.029956346 0.018383216 0.01319533 -0.017559025 -0.017850894 0.021802953 -0.0042846915 -0.02170303
-0.004999204 -0.014581606 0.023985222 0.019310383 0.0047048815 -0.028028345 -0.02118298 -0.016272506
-0.017657563 0.00506813 0.026821624 0.0026188926 -0.0181182 -0.01486963 0.01280718 -0.0032797041
-0.019289639 -0.025938515 0.00026829267 -0.005347823 0.01637808 0.03118509 0.00027121423 -0.0027881572
0.015326923 0.014785212 0.005080862 -0.027259465 0.02195037 0.014663266 -0.0141500905 0.023938244
0.030081391 -0.0057146153 0.006498871 -0.015901199 -0.0073649883 -0.011070225 -0.006189889 -0.006135775
0.011596622 -0.005846576 -0.023532052 0.01334313 0.0064652623 -0.0139258 0.0020147022 -0.012545784
-0.0032194224 -0.0034274019 0.017240975 0.010110507 0.004698533 0.016031148 -0.016658235 0.006654501
-0.00046389148 0.009120991 -0.0007306487 -0.020481106 0.008059407 0.018399986 -0.016137982 0.024705822
0.02174826 -0.016598586 -0.017042806 -0.023715239 -0.027504588 -0.00079295796 -0.004357257 0.0043068896
-0.0037400308 0.009592373 0.014772733 0.0040116673 0.020352777 0.017651556 0.009586732 -0.017971303
-0.011234654 0.0030679633 0.010240937 -0.0009356236 -0.0043923156 -0.024130616 -0.006165455 -0.03278538
0.009654985 -0.013934983 0.0013732833 0.0029306381 -0.014144823 0.046887074 -0.021013629 -0.027107652
-0.036009472 -0.02085948 -0.0054393546 0.0056229085 -0.028513134 -0.01923907 -0.00045686582 -0.021060396
00000000: 0028 68bc 735c de3b 8f04 45bc 304f 71bc
00000010: 3b85 d5ba 8331 763c e0e9 273c 73a2 da3c
00000020: 62fe afbc 2614 cd3c 1328 ed3b aaa6 593c
00000030: 43a1 493c f364 32bc b35b 7ebb e38c 0f3d
00000040: 65b4 e23b 2554 173c 9ecc 08bd 2e8a 22bb
00000050: 231b 173b 32f2 d7bb 29b4 aabc 42f6 353d
00000060: 429e f4bb 74d6 80bc eaa0 273c 68ef c1bc
00000070: a684 bd39 e6ad a7bc 0736 23bb b63c 9b3a
00000080: 3e73 81bc 1d8a 663c e917 29ba fb1c 9e3c
00000090: 3b83 813c 6e47 7c3c 0dbf eabb 9a39 393c
000000a0: 5015 e0bc 9b6d 86bb 7564 4e3c 285f ef3c
000000b0: 0004 27bc 25cc 79bc fe48 79bc d241 16bb
000000c0: 22d8 23bd 24ea 3b3b 3402 14ba 2051 fdbc
000000d0: 3d90 123c 55c1 c03c d378 ea3a bfe1 c33a
000000e0: 6511 133b e0cc 92bc 1e96 c73c fa13 94bb
000000f0: 9a21 e23c 357d d63a bea3 b4bc da6d adba
00000100: b5eb 01bc 764b 8bb9 9d02 fd3c f029 52bc
00000110: 8a52 9c3c 83cb 3dbc 3ac1 103c 0368 1ebc
00000120: 34a8 9fbc 7dba fc3a e4ce 91bb 7c19 3fbb
00000130: 76a3 fc3a eb9c 903c 75a2 a7bc 5e9c 2f3b
00000140: 02b8 0c3d 5511 b3ba 5e1e dabc dcec 9e3c
00000150: c9f1 aabc b46c c3bc 4135 423c 74b6 913b
00000160: 9f5c b0bb 6049 973c bd9a b93c b82b 4e3c
00000170: 28f2 9c3a 5285 05bc 6bc7 efbc b63a a7bc
00000180: 9b2f 9ebc 99fc c0bb 08dd af3a 5a68 f9b9
00000190: 723a 8abc 0a5f b33c 923e cebc 21d4 86bc
000001a0: dfb6 9cbc 434b 7bbb e04d 69bc 8eca f03b
000001b0: 5a1c c1bc d676 80bc c2d1 80bc 5aaa f33c
000001c0: 2de1 ed3c 5e7e 9d3c de23 cbbc da97 c8bc
000001d0: a083 fcba ded5 1c3c 9614 45bc e8a4 8b3b
000001e0: aab9 4f3c d48c a43b 1d8b 4dbc cf78 1abc
000001f0: 4092 e2bc 17f3 c53c 32ea 9f3c 56db b2bc
00000200: 2b96 67bb c3a2 b1bc e387 853c 4839 653c
00000210: 46e5 8cbc 1abb c83b 004c 01bc 456c 27bc
00000220: 03e3 a8bc 002f ba3c 80c1 3ebc ea54 96bc
00000230: 887c d33c 0a13 a33c 38f8 5d3c 8a50 2dbc
00000240: 0367 f5bc 6698 963c 3a31 583c f2d7 8fbc
00000250: 0a3c 92bc 1b9c b23c 9966 8cbb 8eca b1bc
00000260: 5dd0 a3bb b0e7 6ebc a87c c43c cf30 9e3c
00000270: 682b 9a3b b39b e5bc ee87 adbc eb4d 85bc
00000280: 98a6 90bc 8e12 a63b 06b9 db3c baa1 2b3b
00000290: 9f6c 94bc c09f 73bc 35d5 513c 4ef0 56bb
000002a0: 4e05 9ebc 027d d4bc a2a9 8c39 ca3c afbb
000002b0: 532b 863c e077 ff3c c231 8e39 84b9 36bb
000002c0: c61d 7b3c ad3d 723c 5c7d a63b 3e4f dfbc
000002d0: 43d1 b33c 323e 703c c8d5 67bc 231a c43c
000002e0: 406d f63c ab41 bbbb 7bf4 d43b 3b43 82bc
000002f0: 0056 f1bb e45f 35bc 8dd4 cabb 9c0e c9bb
00000300: c2ff 3d3c a294 bfbb 4ac6 c0bc 259d 5a3c
00000310: 8dda d33b 0a29 64bc 1809 043b d58c 4dbc
00000320: f2fc 52bb 439e 60bb f23c 8d3c 8aa6 253c
00000330: 27f6 993b c153 833c da76 88bc 000e da3b
00000340: 7636 f3b9 3670 153c 0189 3fba fec7 a7bc
00000350: 9a0b 043c 91bb 963c cd33 84bc dd63 ca3c
00000360: 6829 b23c c2f9 87bc 5b9d 8bbc 7646 c2bc
00000370: 4d51 e1bc 82de 4fba 52c7 8ebb cf20 8d3b
00000380: 4e1b 75bb 5429 1d3c 5509 723c 4e74 833b
00000390: deba a63c ff99 903c ab11 1d3c 8e38 93bc
000003a0: 8e11 38bc e20f 493b 9ac9 273c a344 75ba
000003b0: 6aed 8fbb 92ad c5bc 9607 cabb f649 06bd
000003c0: f12f 1e3c 8e4f 64bc beff b33a f30f 403b
000003d0: b0bf 67bc a90c 403d c624 acbc de10 debc
000003e0: ab7e 13bd 80e1 aabc 9d3c b2bb 6040 b83b
000003f0: 6094 e9bc 419b 9dbc 7e87 efb9 da86 acbc

model_8/tf.__operators__.add/AddV2/y f4 [32]
-0.025384372 0.0034279071 0.007503261 0.024300227 -0.007674297 -0.012087012 -0.002536244 0.0136906905
0.033072446 0.00947229 -0.004291908 0.024259046 -0.0015216803 0.0016142335 3.594962e-06 0.017317478
-0.023974255 -0.023763796 -0.01951393 -0.01676209 0.023758352 0.029031804 0.009730736 -0.016279778
-0.023570318 0.014225108 -0.014665452 -0.024568599 -0.01572796 -0.027765775 -0.0020239963 -0.002763596
00000000: e3f2 cfbc bda6 603b eadd f53b 4511 c73c
00000010: ab78 fbbb 9a08 46bc 1d37 26bb eb4e 603c
00000020: f976 073d aa31 1b3c 22a3 8cbb e8ba c63c
00000030: 1e73 c7ba b094 d33a fa40 7136 62dd 8d3c
00000040: a865 c4bc 4bac c2bc addb 9fbc a750 89bc
00000050: e0a0 c23c 1bd4 ed3c aa6d 1f3c 2b5d 85bc
00000060: 8a16 c1bc 6d10 693c 5d47 70bc 1644 c9bc
00000070: ecd7 80bc 0d75 e3bc 06a5 04bb 721d 35bb

model_8/tf.__operators__.add_1/AddV2/y f4 [32]
-0.05453668 0.018538816 -0.1327697 -0.1172663 -0.14971316 0.07669706 -0.07709977 0.17569417
-0.01548445 0.05102856 0.0838225 -0.08957609 -0.1399628 0.15156576 0.10840972 0.016335106
-0.1746 0.086193666 0.06351346 0.17984256 -0.054769702 0.15294428 0.11847073 0.11858337
-0.132627 0.15500246 -0.050936602 0.09450153 0.0047370726 0.07078241 -0.1091697 0.14093551
00000000: db61 5fbd b7de 973c c8f4 07be 5029 f0bd
00000010: 684e 19be 5913 9d3d 7ce6 9dbd 2ce9 333e
00000020: 7eb2 7dbc 5303 513d 22ab ab3d ab73 b7bd
00000030: 6952 0fbe 0e34 1b3e ea05 de3d 33d1 853c
00000040: 58ca 32be 4e86 b03d 5813 823d a628 383e
00000050: 3256 60bd 6d9d 1c3e c8a0 f23d d6db f23d
00000060: 5fcf 07be f7b8 1e3e e6a2 50bd 058a c13d
00000070: 7239 9b3b 5ef6 903d 5d94 dfbd 6651 103e

model_8/tf.math.add_2/Add/y f4 [1, 32]
0.007629776 -0.009336278 0.0035795711 0.010553717 0.03292614 0.0136874635 -0.0061200634 0.010519667
0.024346212 0.009978666 0.018781908 0.0018801598 0.02362002 0.022980366 -0.00905939 0.014432771
0.016811917 0.03281076 0.008404184 -0.016842889 -0.013128698 0.005683965 0.021665579 -0.0068413513
-0.008807012 0.012246271 0.0025542572 -0.011311506 0.015327479 -0.0026604987 0.007780799 0.014610672
00000000: 3303 fa3b 30f7 18bc 3d97 6a3b 7fe9 2c3c
00000010: 8fdd 063d 6241 603c d08a c8bb ae5a 2c3c
00000020: b571 c73c 8f7d 233c 84dc 993c b26f f63a
00000030: c67e c13c 5241 bc3c d66d 14bc 6e77 6c3c
00000040: 25b9 893c 9364 063d b4b1 093c 19fa 89bc
00000050: c019 57bc 8e40 ba3b 037c b13c 6a2d e0bb
00000060: 494b 10bc 95a4 483c 5365 273b e553 39bc
00000070: 1b20 7b3c c35b 2ebb 13f6 fe3b 9a61 6f3c

model_8/tf.math.add_5/Add/y f4 [1, 32]
0.06232856 -0.026232323 -0.030882483 0.23378174 0.2243878 0.06711297 0.01820713 0.017295223
0.0075790733 0.041023776 0.010174748 0.030032834 0.23397367 0.06255492 0.24315819 -0.038550995
0.029192775 0.23100361 0.22842237 0.1960589 0.2283434 -0.012112256 0.14665477 0.029552069
0.21933131 0.020841494 -0.04040111 0.23497212 0.2213924 0.050357223 0.23899122 0.03602613
00000000: 3b4c 7f3d 2be5 d6bc 43fd fcbc 7b64 6f3e
00000010: eac5 653e 8672 893d 1e27 953c b6ae 8d3c
00000020: e059 f83b 8c08 283d fcb3 263c 6b07 f63c
00000030: cb96 6f3e cb1c 803d 76fe 783e a6e7 1dbd
00000040: b025 ef3c 368c 6c3e 8ee7 693e aac3 483e
00000050: dad2 693e 7c72 46bc ab2c 163e 2e17 f23c
00000060: 6398 603e c8bb aa3c a27b 25bd 889c 703e
00000070: b0b4 623e 6043 4e3d 1dba 743e 2390 133d

model_8/tf.math.multiply_10/Mul/y f4 [1, 32]
1.0127897 0.9934803 1.0067127 1.0133054 1.0119543 0.94048536 0.994926 0.9422275
1.1080059 1.0056126 1.0106342 0.9963595 0.9646222 1.0153065 0.9981263 1.0041869
1.0204546 1.0048869 0.9980671 0.9936846 0.99592286 1.0015999 1.0222069 1.0004146
0.9970005 1.0006167 1.0059979 0.9945568 1.0051911 1.0022086 0.9261587 1.0082256
00000000: 18a3 813f ba54 7e3f f6db 803f feb3 813f
00000010: b887 813f a6c3 703f 78b3 7e3f d235 713f
00000020: 23d3 8d3f eab7 803f 765c 813f 6b11 7f3f
00000030: 7bf1 763f 90f5 813f 3585 7f3f 3289 803f
00000040: 429e 823f 22a0 803f 5381 7f3f 1d62 7e3f
00000050: cdf4 7e3f 6d34 803f add7 823f 960d 803f
00000060: 6d3b 7f3f 3514 803f 8ac4 803f 469b 7e3f
00000070: 1aaa 803f 5f48 803f bd18 6d3f 890d 813f

model_8/tf.math.multiply_22/Mul/y f4 [1, 32]
1.0556755 0.9710027 0.98168075 1.2652907 1.2037493 1.0731555 1.0199153 1.0241845
1.0340445 1.0769496 0.9963363 1.0644308 1.2569633 1.0299152 1.3163598 0.973173
1.0539867 1.261831 1.2586308 1.1636074 1.2164164 0.99056053 1.1778504 1.0441039
1.2475837 1.038276 0.97071475 1.2773893 1.2412176 1.1349765 1.2531378 1.032376
00000000: 6020 873f a293 783f 6e4f 7b3f 0cf5 a13f
00000010: 7514 9a3f 295d 893f 968c 823f 7a18 833f
00000020: 925b 843f 7cd9 893f e50f 7f3f 453f 883f
00000030: 2ce4 a03f 43d4 833f 7a7e a83f de21 793f
00000040: 09e9 863f ae83 a13f d01a a13f 16f1 943f
00000050: 88b3 9b3f 6095 7d3f cdc3 963f 32a5 853f
00000060: d3b0 9f3f 3ae6 843f c380 783f 7e81 a33f
00000070: 38e0 9e3f e946 913f d266 a03f e624 843f
