speech/assets/models/wakeword/hey_sage_2.onnx (onnx, 206292 bytes, 9 tensors)

layer1.weight f4 [32, 1536]
-0.0026417915 -0.032409787 0.038498998 -0.016924545 -0.010004008 -0.0071157007 0.02071374 0.0054583573
-0.029146833 -0.009808923 -0.014507449 -0.0003790148 -0.0010745035 0.0112808095 0.011226862 0.0032569729
-0.020537877 -0.0048327507 0.010237952 0.014648564 0.012723129 -0.011286294 -0.007806001 -0.0014831483
-0.031914305 0.0187654 0.013152337 0.014112548 0.034149405 -0.003903707 0.0061026835 -0.0006040272
-0.002910608 -0.0035959133 -0.004783265 0.0027214366 0.004450769 -0.012797546 -0.0056498903 0.007714162
-0.007951017 0.0026476025 -0.0034587616 0.00267803 -0.016605925 -0.026185136 -0.0037577602 -0.028915871
-0.013932583 0.01524581 -0.002044593 -0.017039001 -0.003140402 0.018309811 -0.0076838043 -0.005529742
0.023025207 -0.012112487 -0.0018933152 0.025061142 0.011241249 -0.030404305 -0.0073330877 -0.0029954473
-0.0065752123 0.006831832 0.015639523 0.01921746 -0.0010966457 -0.0016714166 -0.005911517 -0.0043671313
0.034135886 0.00576809 0.0032624973 0.01454573 0.005548228 -0.015580683 -0.00063781807 -0.0046682614
0.019471513 0.0022318165 0.018244175 -0.009335465 0.012615562 -0.034632046 -0.007834198 -0.04246817
0.005564394 0.0042462037 0.039816014 -0.014109444 0.01172869 0.0135833565 -0.012560256 -0.00010835225
-0.013785348 -0.0010315755 0.038011193 -0.040371243 -0.008035146 -0.012913105 0.01741638 -0.00919121
-0.01574092 -0.00813917 0.005708478 0.011646696 -0.023639517 0.034496684 0.012468377 0.026012024
0.027783686 0.016653337 -0.029608287 -0.0014763762 0.004808003 0.014863777 0.0120445965 0.021747202
0.007945831 0.006717008 -0.010788906 0.0047389437 0.0133899525 -0.004590105 0.004139931 0.01159352
-0.005193049 0.0036825312 -0.020830706 0.022048641 -0.01472585 0.00059266016 -0.004558612 0.011719167
-0.0061783306 0.024309404 0.00042836 0.005061236 -0.04152391 -0.00414602 0.0044715023 0.0017335505
0.013379684 0.0076931333 0.0012219498 -0.023946099 -0.011500206 0.008938125 -0.015695818 -0.0105789555
-0.011392689 0.0025641108 -0.00928439 -0.026414683 -0.0053565013 -0.0012903004 0.03376009 -0.012500523
-0.002266147 -0.0019480576 0.022406712 -0.017693391 0.03265728 -0.00075769925 -0.03488566 0.011091207
-0.010876245 -0.024025714 0.007497858 -0.013843004 -0.0086888 -0.006443557 -0.016887156 -0.018339828
0.021391064 -0.016401842 0.011010842 0.0084049115 0.03715178 -0.05175637 0.005867291 -0.0044490523
0.012025578 -0.0023366385 0.019258695 0.016594158 -0.0036392638 -0.005432614 0.009478237 -0.012518075
-0.007137077 -0.0040654046 -0.027856441 -0.0228199 -0.020082753 -0.010186936 0.007905725 -0.0225571
-0.0472971 -0.011561834 0.004394098 -0.014603399 -0.00791051 0.019395584 -0.007876875 0.011168956
0.0040834104 -0.004260681 -0.022759054 0.023077244 -0.00742012 0.0072077718 -0.012174101 -0.0065316046
0.0059884666 8.833212e-05 0.0063523976 -0.0148138255 -0.01288357 -0.03773176 -0.0089488 0.02524833
0.029055092 0.0083976155 -0.015582129 0.015672557 0.021749072 0.018230077 0.0048115887 0.005718395
0.009688179 -0.0040612933 7.293344e-05 -8.490295e-05 -0.0010570226 -0.008365569 -0.019044556 -0.0013611334
-0.013934834 0.012130919 -0.009098577 -0.002229771 0.0021339399 0.023177668 -0.028237332 -0.032949377
0.025732035 -0.022779396 -0.010438182 -0.025312124 0.007064911 -0.017674208 -0.024107058 -0.00782771
00000000: e821 2dbb 20c0 04bd 20b1 1d3d 58a5 8abc
00000010: dae7 23bc d32a e9bb dcaf a93c 05dc b23b
00000020: 57c5 eebc 9bb5 20bc a7b0 6dbc 81b6 c6b9
00000030: 5bd6 8cba 25d3 383c dff0 373c f072 553b
00000040: 0d3f a8bc 0d5c 9ebb 15bd 273c 8800 703c
00000050: ac74 503c 26ea 38bc 7cc9 ffbb 3366 c2ba
00000060: 93b8 02bd e5b9 993c e67c 573c 5138 673c
00000070: 3fe0 0b3d 56d5 7fbb 05f9 c73b 9457 1eba
00000080: e6bf 3ebb 6aa9 6bbb efbc 9cbb 215a 323b
00000090: c2d7 913b ccac 51bc b722 b9bb 15c7 fc3b
000000a0: fb44 02bc 6683 2d3b 64ac 62bb e381 2f3b
000000b0: 2609 88bc 3682 d6bc c144 76bb fae0 ecbc
000000c0: 7d45 64bc 90c9 793c 94fe 05bb 6095 8bbc
000000d0: 34cf 4dbb 75fe 953c 6cc8 fbbb d732 b5bb
000000e0: 5c9f bc3c 7473 46bc 1e29 f8ba 064d cd3c
000000f0: 372d 383c 7312 f9bc 664a f0bb 444f 44bb
00000100: e174 d7bb 90dd df3b 751e 803c ef6d 9d3c
00000110: 53bd 8fba 6f13 dbba 66b5 c1bb 271a 8fbb
00000120: 12d2 0b3d 3f02 bd3b 9fcf 553b 3751 6e3c
00000130: e9cd b53b 1f46 7fbc 3f33 27ba 37f8 98bb
00000140: b982 9f3c ab43 123b cf74 953c c7f3 18bc
00000150: 81b1 4e3c 55da 0dbd 025b 00bc 1bf3 2dbd
00000160: 8555 b63b bd23 8b3b 1e16 233d 4c2b 67bc
00000170: b129 403c ba8c 5e3c 88c9 4dbc 2c3b e3b8
00000180: f1db 61bc ee35 87ba a0b1 1b3d 515c 25bd
00000190: d8a5 03bc 7d91 53bc ccac 8e3c bb96 16bc
000001a0: 1af3 80bc 275a 05bc 2f0e bb3b c9d1 3e3c
000001b0: a9a7 c1bc 654c 0d3d 2a48 4c3c 2b17 d53c
000001c0: 9d9a e33c 946c 883c 148d f2bc f782 c1ba
000001d0: 748c 9d3b 3387 733c b356 453c 3027 b23c
000001e0: 3b2f 023c 591a dc3b f4c3 30bc 2449 9b3b
000001f0: 8861 5b3c 9768 96bb 42a8 873b bff2 3d3c
00000200: 742a aabb 9f56 713b 28a5 aabc 5a9f b43c
00000210: b144 71bc c05c 1b3a 6960 95bb c001 403c
00000220: 9873 cabb 8424 c73c 8295 e039 bad8 a53b
00000230: fa14 2abd 56db 87bb ae85 923b 4d38 e33a
00000240: 7636 5b3c ae16 fc3b d529 a03a 9c2a c4bc
00000250: 5c6b 3cbc 3771 123c 8494 80bc 5b53 2dbc
00000260: 67a8 3abc a40a 283b 8e1d 18bc 9b63 d8bc
00000270: 9785 afbb 4c1f a9ba 0548 0a3d fece 4cbc
00000280: a383 14bb f755 ffba 488e b73c bbf1 90bc
00000290: a4c3 053d 56a0 46ba 44e4 0ebd e5b7 353c
000002a0: 4732 32bc 93d1 c4bc 97b0 f53b c4cd 62bc
000002b0: 785b 0ebc 7924 d3bb ef56 8abc 683d 96bc
000002c0: 503c af3c 285d 86bc d266 343c c1b4 093c
000002d0: 772c 183d 7dfe 53bd 6742 c03b 5bc9 91bb
000002e0: ee06 453c 4a22 19bb 69c4 9d3c 79f0 873c
000002f0: b780 6ebb 1204 b2bb 9b4a 1b3c 9d18 4dbc
00000300: 24de e9bb 1637 85bb 3133 e4bc cdf0 babc
00000310: 9684 a4bc 1be7 26bc 0487 013c abc9 b8bc
00000320: 9bba 41bd d96d 3dbc 5efc 8f3b 1843 6fbc
00000330: 159b 01bc 7de3 9e3c 020e 01bc fffd 363c
00000340: 21ce 853b 2f9d 8bbb 3271 babc 7d0c bd3c
00000350: 7a24 f3bb 2c2f ec3b e175 47bc 1207 d6bb
00000360: e63a c43b f23e b938 c627 d03b b0b5 72bc
00000370: 9c15 53bc 9e8c 1abd fd9d 12bc 96d5 ce3c
00000380: f204 ee3c 2796 093c 304c 7fbc bc63 803c
00000390: 1c2b b23c 3e57 953c 88aa 9d3b 6061 bb3b
000003a0: 2bbb 1e3c 9914 85bb d8f3 9838 ed0d b2b8
000003b0: cb8b 8aba bd0f 09bc 5403 9cbc 0f68 b2ba
000003c0: ee4e 64bc c3c0 463c 3312 15bc 5a21 12bb
000003d0: 92d9 0b3b 18df bd3c fa51 e7bc edf5 06bd
000003e0: fdcb d23c db9b babc e904 2bbc 5f5b cfbc
000003f0: c580 e73b 80c9 90bc 2a7c c5bc cc3f 00bc

layer1.bias f4 [32]
0.0032867412 0.028803116 0.022005346 0.020059355 0.009962328 0.0045990464 -0.007635318 0.017716236
0.0021968572 0.021131098 0.021359438 0.0038583283 -0.023415947 -0.0035158864 -0.018207714 0.0002716356
-0.032836262 0.019290786 0.016019668 0.022235816 -0.021563634 0.01087171 0.010375181 0.023898326
-0.011412673 0.014124176 0.0034873688 0.0013125411 0.0070569427 0.012282043 0.0037509443 -0.018869719
00000000: 5e66 573b 83f4 eb3c 8e44 b43c 8453 a43c
00000010: 0839 233c 99b3 963b b131 fabb a421 913c
00000020: 26f9 0f3b 201b ad3c fdf9 ae3c 02dc 7c3b
00000030: cdd2 bfbc c96a 66bb 5828 95bc 506a 8e39
00000040: 517f 06bd b607 9e3c ae3b 833c e327 b63c
00000050: 38a6 b0bc 421f 323c aafc 293c 6cc6 c33c
00000060: 38fc 3abc 1769 673c 578c 643b 9209 ac3a
00000070: ed3d e73b 9f3a 493c 67d2 753b ab94 9abc

layernorm1.weight f4 [32]
0.9988038 1.0173037 1.0055537 0.9995192 0.9392018 0.99166 0.99472183 0.9868447
0.9977963 1.0004812 1.0088032 1.0259827 0.9857417 1.0210699 0.98508394 0.9850995
1.0124742 1.0201446 0.9912459 0.95298827 0.9980852 0.9954077 0.991701 0.96100223
0.9985016 0.9931253 0.9914698 0.99662346 0.95967084 0.97425085 1.0260572 1.0042782
00000000: 9bb1 7f3f 0237 823f fcb5 803f 7ee0 7f3f
00000010: 876f 703f 6edd 7d3f 17a6 7e3f dba1 7c3f
00000020: 946f 7f3f c50f 803f 7720 813f 6753 833f
00000030: 9159 7c3f 6bb2 823f 762e 7c3f 7b2f 7c3f
00000040: c198 813f 1994 823f 4bc2 7d3f 0af7 733f
00000050: 8382 7f3f 0ad3 7e3f 1ee0 7d3f 3e04 763f
00000060: cd9d 7f3f 763d 7e3f f7d0 7d3f b722 7f3f
00000070: fdac 753f 8168 793f d855 833f 308c 803f

layernorm1.bias f4 [32]
0.030467845 0.005229567 0.008568828 -0.0044815494 0.013827259 -0.011349894 -0.014548892 -0.006769461
-0.008404537 0.0037708806 0.0013586011 0.017334336 -0.012014143 0.015321686 -0.012836338 0.005136375
0.0177166 0.010528852 -0.011921351 0.007285505 0.020155504 -0.015127979 -0.006076928 -0.0012715916
-0.016928256 -0.010410573 -0.004387532 0.021233799 0.007687536 0.00797587 0.012349742 -0.0088606775
00000000: b497 f93c ca5c ab3b 4564 0c3c f6d9 92bb
00000010: ba8b 623c e8f4 39bc 7a5e 6ebc 5bd2 ddbb
00000020: 2fb3 09bc e120 773b 1713 b23a bd00 8e3c
00000030: f8d6 44bc cf07 7b3c 814f 52bc 094f a83b
00000040: 6722 913c 3581 2c3c c551 43bc 3fbb ee3b
00000050: 281d a53c 58db 77bc f820 c7bb 89ab a6ba
00000060: 20ad 8abc 1c91 2abc 49c5 8fbb 81f2 ad3c
00000070: bae7 fb3b 39ad 023c 9356 4a3c 602c 11bc

blocks.0.fcn_layer.weight f4 [32, 32]
-0.0656125 0.1583529 0.06666247 -0.17197631 -0.17439136 -0.022551065 0.10715287 0.14451459
0.006550789 0.108699985 -0.0017087414 0.1624573 0.11029148 0.19627324 -0.0089371065 -0.03158803
-0.12191412 0.0769507 0.16729268 0.03985799 -0.08859829 0.0023884054 0.026040012 0.0802832
0.10852661 -0.17254664 -0.0733419 -0.018929768 -0.07032721 -0.12263 0.17301476 0.11872739
0.19573063 -0.15508963 0.031152545 -0.05037582 0.042624753 -0.05569417 -0.021876948 -0.043396883
0.011751497 -0.06860036 0.19164379 -0.111737885 -0.004313427 -0.18307582 0.14043564 0.018568274
0.074345104 0.087881595 -0.16640645 -0.08066807 0.1854246 0.17176272 -0.15943699 -0.097936444
0.010549749 -0.1386928 -0.0953711 0.10687227 -0.053355206 0.034382112 0.023411974 0.13888307
-0.07839814 0.07705481 0.10845704 -0.05071807 -0.035224736 -0.091120996 -0.12082946 0.15259303
-0.10420757 -0.13394883 -0.013540371 0.0915398 -0.15275246 0.087115146 0.010908494 0.07875819
-0.06908502 0.10746565 0.12797111 -0.1810685 -0.18186028 -0.17362083 -0.17286041 0.060950648
-0.028381566 -0.02677277 -0.03726759 0.057669904 0.012395851 0.098028734 0.14564295 -0.11684677
0.16272709 0.020500056 -0.15435302 0.0002441529 -0.035687726 0.15216139 -0.058310546 0.06483298
-0.14922993 -0.028682914 0.018020691 -0.034084577 -0.09245945 -0.04776203 -0.041375924 0.10006094
-0.050625157 -0.0954038 -0.15312305 0.07346986 0.012857071 -0.10558454 -0.08585578 0.07436338
0.15034783 0.15043932 -0.047632523 0.09479488 0.018273892 -0.067372784 -0.04031746 -0.10143089
-0.16538632 -0.0022552435 -0.18642215 0.1862005 0.05551498 0.15519598 0.13937436 -0.014945291
0.039257307 0.107144244 0.17258239 -0.022422194 0.01990761 0.0853458 -0.036716335 0.037142903
-0.06992449 0.10821821 0.084989905 -0.044736516 0.058527295 0.030185053 -0.098978505 0.08602393
0.0654048 -0.16008563 0.15737133 -0.09671224 0.12800117 0.11540484 -0.1288181 -0.07981172
0.15498577 -0.005534113 -0.16611193 -0.1385466 -0.033468522 -0.15118906 0.06495863 -0.0030227709
0.066137426 -0.11521634 0.02338197 -0.13070223 0.11260152 0.07971448 -0.11467323 0.09442511
0.03698413 -0.07691713 0.06973584 -0.00011001958 0.085841864 -0.123700365 -0.04222684 0.055019476
-0.07460802 0.06897146 -0.17309907 0.048235584 0.030031627 0.00034511695 -0.099863365 0.14274846
0.08881114 -0.07364495 0.1483903 -0.18704888 -0.0063592517 0.057157803 0.10350764 -0.102113605
-0.1177386 -0.17398793 -0.090933084 -0.025680637 -0.10544052 -0.08562179 0.08312901 0.093815304
-0.049832933 0.118020475 -0.1245949 0.042759016 0.10488614 0.15703467 0.07433325 0.11517735
-0.013985266 0.117241584 0.00387221 0.051545296 -0.061601438 -0.15474533 0.076580584 -0.013214712
-0.10903797 0.12014072 -0.10370597 0.18354547 -0.05124531 0.037603322 0.09638353 0.010705138
0.11281582 0.19716142 -0.1199873 -0.017243965 -0.015408644 -0.09396667 0.050973546 0.053072695
-0.024915172 0.1384422 -0.06960064 -0.01010031 -0.08861414 0.14228398 0.16368273 -0.13781214
-0.0466467 -0.03591491 0.081978835 0.08596505 -0.18868107 0.0859714 0.10315922 0.024964707
00000000: d95f 86bd 4327 223e 5586 883d 8f1a 30be
00000010: a693 32be 03bd b8bc f772 db3d a2fb 133e
00000020: 00a8 d63b 199e de3d d9f7 dfba 355b 263e
00000030: 80e0 e13d dafb 483e f16c 12bc 7362 01bd
00000040: 1cae f9bd 5498 9d3d c64e 2b3e 2242 233d
00000050: 0573 b5bd cb86 1c3b dd51 d53c 856b a43d
00000060: 3343 de3d 11b0 30be 4734 96bd 9a12 9bbc
00000070: b607 90bd 7025 fbbd c82a 313e 5927 f33d
00000080: 9c6d 483e d1cf 1ebe 9f33 ff3c e056 4ebd
00000090: 4b97 2e3d 921f 64bd 4937 b3bc eec0 31bd
000000a0: 5a89 403c 587e 8cbd 453e 443e d5d6 e4bd
000000b0: a657 8dbb 3a78 3bbe 5cce 0f3e 7e1c 983c
000000c0: 3f42 983d 44fb b33d 7466 2abe 4d35 a5bd
000000d0: f2df 3d3e 91e2 2f3e 7343 23be e792 c8bd
000000e0: dbd8 2c3c 7c05 0ebe ec51 c3bd d9df da3d
000000f0: fd8a 5abd 42d4 0c3d 78ca bf3c 5d37 0e3e
00000100: 348f a0bd eace 9d3d b91e de3d c0bd 4fbd
00000110: d047 10bd a59d babd 7075 f7bd 5941 1c3e
00000120: c76a d5bd e229 09be 6fd8 5dbc 3879 bb3d
00000130: 246b 1cbe 6d69 b23d 8ab9 323c f94b a13d
00000140: 727c 8dbd f316 dc3d dc0a 033e 056a 39be
00000150: 9539 3abe a9c9 31be 5202 31be 63a7 793d
00000160: 7580 e8bc 9152 dbbc e7a5 18bd 4737 6c3d
00000170: f817 4b3c 4ac3 c83d 6d23 153e 5c4d efbd
00000180: eea1 263e bcef a73c b80e 1ebe a601 8039
00000190: 4b2d 12bd 32d0 1b3e 0ad7 6ebd 27c7 843d
000001a0: bbcf 18be 6ef8 eabc 21a0 933c 459c 0bbd
000001b0: 615b bdbd 1ea2 43bd cd79 29bd c0ec cc3d
000001c0: 535c 4fbd 1163 c3bd 4acc 1cbe 5e77 963d
000001d0: 77a6 523c b53c d8bd 28d5 afbd d44b 983d
000001e0: c8f4 193e c40c 1a3e 521a 43bd d123 c23d
000001f0: 21b3 953c befa 89bd ec23 25bd 00bb cfbd
00000200: 085b 29be b5cc 13bb 73e5 3ebe 58ab 3e3e
00000210: ad63 633d b2eb 1e3e 27b8 0e3e 18dd 74bc
00000220: 45cc 203d 716e db3d 70b9 303e c0ae b7bc
00000230: 4915 a33c c7c9 ae3d de63 16bd 2823 183d
00000240: 9234 8fbd 82a1 dd3d 300f ae3d a33d 37bd
00000250: 51ba 6f3d a546 f73c 3eb5 cabd 502d b03d
00000260: f4f2 853d 7ded 23be f325 213e 1111 c6bd
00000270: bd12 033e 5f59 ec3d e4e8 03be 5474 a3bd
00000280: 97b4 1e3e 8157 b5bb 3f19 2abe 29df 0dbe
00000290: 4a16 09bd 4ed1 1abe 0809 853d ae19 46bb
000002a0: 0f73 873d 8bf6 ebbd 8c8b bf3c ced6 05be
000002b0: a09b e63d 5841 a33d ccd9 eabd f461 c13d
000002c0: ac7c 173d ba86 9dbd aad1 8e3d 50ba e6b8
000002d0: dccd af3d 9e56 fdbd 0df6 2cbd 1a5c 613d
000002e0: 17cc 98bd e940 8d3d e240 31be ad92 453d
000002f0: e304 f63c d0f0 b439 2a85 ccbd a72c 123e
00000300: 9de2 b53d 2ad3 96bd a0f3 173e be89 3fbe
00000310: 4561 d0bb 4d1e 6a3d d0fb d33d f020 d1bd
00000320: ef20 f1bd e429 32be 203b babd 3360 d2bc
00000330: 33f1 d7bd 7a5a afbd 8b3f aa3d 3d22 c03d
00000340: 9e1d 4cbd b8b4 f13d 9c2b ffbd 1424 2f3d
00000350: 8bce d63d b2cd 203e 083c 983d 1ae2 eb3d
00000360: 7522 65bc 5b1c f03d e7c4 7d3b 2921 533d
00000370: ca51 7cbd 8f75 1ebe 48d6 9c3d 8582 58bc
00000380: 4d4f dfbd 560c f63d cc63 d4bd 58f3 3b3e
00000390: 9ae6 51bd f105 1a3d ba64 c53d 9a64 2f3c
000003a0: fb0b e73d afe4 493e e7bb f5bd 3743 8dbc
000003b0: 8a74 7cbc 9971 c0bd a3c9 503d c162 593d
000003c0: e71a ccbc cbc3 0d3e c88a 8ebd c57b 25bc
000003d0: 557b b5bd e4b2 113e 729c 273e a01e 0dbe
000003e0: 9c10 3fbd 831b 13bd 85e4 a73d 720e b03d
000003f0: 9c35 41be c611 b03d 2445 d33d c982 cc3c

blocks.0.fcn_layer.bias f4 [32]
-0.0051233754 -0.030167717 0.079573385 -0.14994267 -0.066433795 -0.052306123 0.1574207 -0.09469363
-0.11961042 0.17020757 -0.11234085 0.117011786 -0.12764293 -0.053759646 0.042864274 0.17017397
-0.14946388 0.075961314 -0.15031222 -0.15850388 -0.10798262 0.10767175 -0.0077245063 -0.08592697
-0.07524781 0.15729652 -0.067034125 -0.031484626 0.028367128 0.13203453 -0.009017359 0.060568042
00000000: fde1 a7bb 4a22 f7bc 5ff7 a23d 928a 19be
00000010: 710e 88bd f23e 56bd e432 213e bcee c1bd
00000020: 4ff6 f4bd e54a 2e3e f612 e6bd e0a3 ef3d
00000030: d4b4 02be 1333 5cbd 7392 2f3d 1642 2e3e
00000040: 0f0d 19be 9b91 9b3d 72eb 19be d74e 22be
00000050: fe25 ddbd 0283 dc3d db1d fdbb 7bfa afbd
00000060: 861b 9abd 5712 213e 3049 89bd 06f6 00bd
00000070: 2e62 e83c 0f34 073e 8cbd 13bc 3216 783d

blocks.0.layer_norm.weight f4 [32]
1.4312615 1.082543 1.2040731 1.011248 1.0011972 0.97228277 1.2341903 0.99814045
1.059747 1.3701006 1.0020912 1.2906941 1.0899743 0.91976917 1.006929 1.2192719
0.9976398 1.0865147 1.25579 1.0035348 1.2326111 1.0273962 1.1091352 1.0531068
1.0194823 1.0223107 1.0538622 1.0207611 1.0473642 1.0733544 1.2573948 1.0635883
00000000: 9433 b73f c590 8a3f 111f 9a3f 9370 813f
00000010: 3b27 803f 86e7 783f f3f9 9d3f 2286 7f3f
00000020: caa5 873f 755f af3f 8644 803f 7735 a53f
00000030: 4784 8b3f fe75 6b3f 0de3 803f 1a11 9c3f
00000040: 5265 7f3f ea12 8b3f babd a03f d473 803f
00000050: 33c6 9d3f b881 833f 24f8 8d3f 34cc 863f
00000060: 657e 823f 14db 823f f5e4 863f 4da8 823f
00000070: 0810 863f ad63 893f 50f2 a03f a923 883f

blocks.0.layer_norm.bias f4 [32]
0.3258546 0.03630239 0.23215567 0.0068029016 0.008404067 -0.029694924 0.26023665 -0.011349173
0.036820333 0.2987061 0.006926048 0.26844168 0.06751733 -0.056887746 0.005089142 0.23379752
-0.003590434 0.076530874 0.25057635 0.0073508485 0.23925123 0.009502939 0.06869084 0.03544007
0.019762242 0.044710375 0.05035765 0.019575506 0.03913273 0.06697914 0.24870382 0.061330613
00000000: 6ad6 a63e d1b1 143d 37ba 6d3e e0ea de3b
00000010: 36b1 093c c542 f3bc bd3d 853e e2f1 39bc
00000020: ebd0 163d 02f0 983e e7f3 e23b 3071 893e
00000030: 8746 8a3d 2003 69bd d1c2 a63b 9e68 6f3e
00000040: 7d4d 6bbb 38bc 9c3d 8b4b 803e 63df f03b
00000050: 46fe 743e 37b2 1b3c c8ad 8c3d 9b29 113d
00000060: 6de4 a13c 3a22 373d d343 4e3d d05c a03c
00000070: a449 203d 5c2c 893d 37ac 7e3e cf35 7b3d

last_layer.weight f4 [1, 32]
-0.37297118 0.19102912 -0.35199553 0.010321813 0.1694543 -0.06955457 -0.25602782 0.08779555
0.06416027 -0.34824765 -0.0014785245 -0.3110056 0.097345255 0.015010948 0.040082302 -0.3699307
0.115001254 0.11362307 -0.34950167 -0.048691753 -0.36453918 0.1306918 0.12243959 0.06314465
0.05268777 0.065917864 0.21855693 0.13951334 0.11550256 0.11713693 -0.3490575 0.09248082
00000000: 14f6 bebe 239d 433e c238 b4be d21c 293c
00000010: 6e85 2d3e a072 8ebd 1416 83be 27ce b33d
00000020: 7666 833d 844d b2be 0dcb c1ba 203c 9fbe
00000030: f35c c73d 7bf0 753c 572d 243d 8f67 bdbe
00000040: c785 eb3d 36b3 e83d e2f1 b2be 0171 47bd
00000050: e1a4 babe 12d4 053e 9cc1 fa3d fb51 813d
00000060: 22cf 573d f2ff 863d 63cd 5f3e 96dc 0e3e
00000070: 9b8c ec3d 7de5 ef3d aab7 b2be 9666 bd3d
