speech/assets/models/wakeword/sage_wakeword_2.onnx (onnx, 206292 bytes, 9 tensors)

layer1.weight f4 [32, 1536]
0	0x3bd3c267	0.0064623835
1	0x3cb9787c	0.02264046
2	0xbc16cd9b	-0.009204294
3	0x3c8266b6	0.015918117
4	0x3d04c050	0.032409966
5	0xbc712b6b	-0.014719824
6	0x3c264e5d	0.010150519
7	0xbcb58178	-0.022156462
8	0xbb907b02	-0.004409195
9	0xbb99928d	-0.0046866597
10	0xbc263923	-0.010145458
11	0xbceddce0	-0.029035985
12	0xbc504087	-0.012710697
13	0xbc6ca901	-0.014444591
14	0x3bcc1233	0.0062277555
15	0xbcbbf6b5	-0.022944788
16	0x3c2ed569	0.010670998
17	0x3c96becd	0.018401528
18	0x3c432dbf	0.011912762
19	0xbb376b90	-0.0027987696
20	0xbc281cc0	-0.010260761
21	0x3b90bf00	0.0044173
22	0x3c60845d	0.013703433
23	0x3b6800d3	0.0035400882
24	0x3b5cfbb3	0.003371936
25	0xbc866237	-0.016404254
26	0x3c560ddc	0.013064828
27	0xbc82f216	-0.015984576
28	0xbcc1ec90	-0.023672372
29	0x3cd40fa7	0.02588637
30	0x3cc1198e	0.023571756
31	0xba111467	-0.0005534351
32	0xbc274d25	-0.010211264
33	0xbd123a81	-0.035700325
34	0xbc10151c	-0.008794095
35	0x3bcf0ab8	0.0063184164
36	0x3c09b95b	0.008406009
37	0xbccea59c	-0.025225453
38	0xbcb9133b	-0.022592178
39	0x3c42e5a9	0.011895576
40	0x3bcea7a2	0.0063066045
41	0xbd0b76af	-0.034048732
42	0xbc957cca	-0.01824798
43	0x3bd49290	0.006487198
44	0xbca514d8	-0.02015154
45	0x3c4b9a57	0.012426934
46	0x3c76bd45	0.015059774
47	0xbc538e0b	-0.012912284
48	0xbc86f46c	-0.016473971
49	0x3c6a5d0d	0.014304412
50	0x3b82b9df	0.0039894427
51	0x3c9acc89	0.018896358
52	0x3c7c1aa8	0.015387215
53	0x3a57c22f	0.0008230535
54	0x3cce51ac	0.025185429
55	0x3ca07458	0.019586727
56	0xbc35bfbd	-0.011093077
57	0xbaf4d34c	-0.0018678694
58	0x3cab3842	0.02090085
59	0xbc802a04	-0.015645035
60	0x3bd0511f	0.0063573266
61	0x3c78f90d	0.015196097
62	0x3c6367c8	0.013879724
63	0xbc12e603	-0.008965972
64	0xb9bdc4af	-0.0003619543
65	0x39118d7b	0.00013880983
66	0x3d050c36	0.03248235
67	0x3c9ce0eb	0.019150218
68	0x3c1d0148	0.009582825
69	0x3b9a907a	0.00471693
70	0xbd05801c	-0.032592878
71	0x3c93bf44	0.018035538
72	0xbc38075c	-0.011232223
73	0x3cec680c	0.028858207
74	0x3af6f8a0	0.0018842407
75	0x3cbd0908	0.023075595
76	0x3c34d7aa	0.011037746
77	0x3d357074	0.044296697
78	0x3ca66ca6	0.02031548
79	0xbc8845ba	-0.01663481
80	0xbc231319	-0.009953284
81	0xb9b025bb	-0.00033597447
82	0x3cc33894	0.02383069
83	0xbc985e23	-0.018599575
84	0x3c2101b9	0.009827071
85	0xbd981aec	-0.0742701
86	0xbcb82b72	-0.022481654
87	0xbce4b810	-0.0279198
88	0x3cad501d	0.021156365
89	0xbcd07938	-0.025448427
90	0xbc054a56	-0.008135399
91	0x3c1c9c30	0.009558722
92	0xbbaa3b57	-0.005195062
93	0xbbf0b946	-0.007346305
94	0x3be614c0	0.0070215166
95	0x3bdd1f4c	0.0067481156
96	0x3c7670e8	0.015041567
97	0x3a85e04a	0.0010213938
98	0xbc7b8e90	-0.015353814
99	0xbc9dd95c	-0.019268684
100	0x3af8d7e8	0.0018985244
101	0x3b5ce00e	0.0033702883
102	0xbc597909	-0.013273486
103	0xbb8d477c	-0.0043115
104	0xbd23e827	-0.04001632
105	0xbccd0128	-0.025024965
106	0xbcb93744	-0.02260936
107	0x3b319860	0.002709888
108	0x3c3297eb	0.010900478
109	0x3b0d1b9e	0.0021531354
110	0xbc707f20	-0.014678746
111	0xbc271107	-0.010196931
112	0x3c367361	0.011135907
113	0x3d068c05	0.032848377
114	0x3c7b3826	0.015333211
115	0x3c2258d3	0.009908873
116	0xbca05a58	-0.01957433
117	0x3c84a056	0.016189735
118	0xbcc0bc71	-0.023527356
119	0xbc4c4df7	-0.01246976
120	0xbb6fd49d	-0.0036595233
121	0xbc8bdda4	-0.01707346
122	0xbc82a86c	-0.01594945
123	0xbb3587ad	-0.0027699277
124	0xbc4e0586	-0.012574559
125	0xbc5d2565	-0.013497685
126	0x3cb63871	0.02224371
127	0x3bd5be03	0.0065228953
128	0x3b764cb2	0.0037582335
129	0x3b519f65	0.0031985876
130	0xbc55e186	-0.013054257
131	0xbcd84eed	-0.026404822
132	0x3c0bcd1d	0.00853279
133	0x3c5518c8	0.013006397
134	0x3bcd6bf8	0.0062689744
135	0xbc10a3c5	-0.008828108
136	0x3b06d067	0.0020570995
137	0x3c14bd59	0.009078347
138	0xbc562fbc	-0.013072904
139	0x3c9e7b62	0.019345943
140	0xbc827aff	-0.01592779
141	0xbcdba671	-0.026812764
142	0x3c05d018	0.008167289
143	0xbcb73316	-0.022363227
144	0xbbdcde97	-0.006740402
145	0x3d27c6da	0.040961124
146	0xbb411aba	-0.0029465393
147	0xbc1ce689	-0.009576448
148	0x3c2f2f0e	0.010692371
149	0x3c425c7a	0.011862868
150	0x3c2e593e	0.010641394
151	0xbcccacd3	-0.024984753
152	0xbcb208c3	-0.021732694
153	0xbcb09ae2	-0.021558229
154	0x3d09e88a	0.033669032
155	0x3c2d857a	0.010590905
156	0x3b4e4b86	0.003147812
157	0xbce38132	-0.027771566
158	0x3d2c2da5	0.042035718
159	0x3d0eb7aa	0.034843124
160	0x3b77768f	0.0037759875
161	0x3bb91ccb	0.0056491843
162	0x3d3ded62	0.046368964
163	0x3cbe7e4f	0.023253588
164	0xbbef6417	-0.007305633
165	0xbcd7e6e1	-0.026355209
166	0x3bb3859e	0.005478575
167	0x3c97e40a	0.018541355
168	0xbc7eaa84	-0.015543584
169	0x3ae2dc6f	0.0017308126
170	0x3c66f790	0.014097109
171	0xbb0ea2c2	-0.0021764492
172	0xbc365db0	-0.011130735
173	0x3b0f5cec	0.0021875454
174	0x3ca05bbb	0.01957499
175	0xbc6293ca	-0.013829181
176	0x3a827a3a	0.0009954639
177	0xbcd052dc	-0.025430135
178	0xbc9151f7	-0.01773928
179	0x3ce4f403	0.027948385
180	0xbcc61eb9	-0.024184572
181	0xbd7a3e82	-0.06109477
182	0xbcc592ae	-0.024117794
183	0xbca1cf83	-0.01975227
184	0xbb76c312	-0.0037652892
185	0xbcaed9ae	-0.021344032
186	0x3c8c6d78	0.017142043
187	0x3ad0c22e	0.0015927011
188	0x3b8c3d76	0.0042797877
189	0x3ccaf9d4	0.02477733
190	0x3be5301f	0.006994262
191	0xbc9290fb	-0.017891398
192	0x3c77010f	0.015075936
193	0x3b90a43e	0.0044141104
194	0x3c795dfd	0.015220162
195	0xbc890691	-0.016726764
196	0x3cbe9de0	0.02326864
197	0x3bce71a5	0.0063001686
198	0x3c553d04	0.013015036
199	0xbc3ffc31	-0.011717842
200	0xbc38f243	-0.011288228
201	0xbae12e4e	-0.0017179938
202	0xbab53731	-0.0013825652
203	0x3ceb5aa0	0.028729737
204	0x3c263224	0.01014379
205	0x3b4e4cc9	0.0031478873
206	0x3c96e79c	0.018420987
207	0xbb9846e1	-0.0046471213
208	0x3cbb1bf6	0.022840481
209	0x3cb05d04	0.021528728
210	0x3938e677	0.00017633462
211	0xbb02e2ba	-0.0019971565
212	0xbc9a1178	-0.018807158
213	0x3c3d1fdd	0.011543241
214	0x3c3d9852	0.0115719605
215	0xbd18f229	-0.037340317
216	0x3caeab1b	0.021321824
217	0x3cc52dde	0.024069723
218	0x3a368aac	0.0006963413
219	0xbb74f090	-0.0037374832
220	0x3d04b21f	0.032396432
221	0xbc160be5	-0.009158109
222	0xbc5dad74	-0.013530124
223	0xbce648ba	-0.02811085
224	0x3cdde629	0.027087288
225	0xbca4c639	-0.020114051
226	0x3b91aa1c	0.0044453274
227	0xbc7db553	-0.015485126
228	0xbbe3d916	-0.006953369
229	0xbb8f06c2	-0.0043648193
230	0x3c93ff0f	0.018065957
231	0x3cad6baf	0.021169512
232	0x3a860e18	0.0010227589
233	0xbb8f9c0d	-0.0043826164
234	0xbc9f61d4	-0.019455828
235	0x3ca6aece	0.020347025
236	0xbc8841aa	-0.016632874
237	0xb9e2269d	-0.00043134848
238	0xbc1d8e8b	-0.009616504
239	0xbc78c3bf	-0.015183388
240	0xbca3a64f	-0.019976763
241	0x39650e4a	0.00021844465
242	0x3bd88a8f	0.0066083143
243	0xbc3eddac	-0.01164953
244	0xbc5b41dd	-0.013382402
245	0x3bae5f46	0.005321416
246	0xbca18502	-0.019716743
247	0xba64ff2b	-0.0008735533
248	0x3c8573e4	0.016290613
249	0xbc9a9215	-0.018868485
250	0x3c5f33c0	0.013623178
251	0x3cfbebca	0.030752081
252	0xb9fa638a	-0.00047757878
253	0x3bc2f893	0.0059500425
254	0x3cef4f64	0.029212661
255	0x3d08a974	0.033364728

layer1.bias f4 [32]
0	0x3ca78b3a	0.02045213
1	0xbcae8d2c	-0.02130755
2	0xbc6c5d84	-0.014426593
3	0x3c54675c	0.012964096
4	0xbc9f5d92	-0.019453797
5	0xbb8c6f1b	-0.0042857057
6	0x3c3959a6	0.011312878
7	0xbc450c14	-0.012026805
8	0xbc900377	-0.017579777
9	0xbaa7d085	-0.0012803233
10	0x3cc0195c	0.023449592
11	0xbc7ea1b1	-0.01554148
12	0x3b524349	0.0032083562
13	0x3b504c46	0.0031783744
14	0xbc9033fc	-0.017602913
15	0xbc828c99	-0.015936183
16	0xbcb30387	-0.021852268
17	0xbccf35ce	-0.02529421
18	0x3ba14836	0.0049219383
19	0xbba4eb71	-0.0050329496
20	0xbc50566e	-0.012715919
21	0xbb609fcb	-0.0034274932
22	0xbcd88c2c	-0.026434027
23	0x3ccfad32	0.02535114
24	0xbc87ac9b	-0.016561797
25	0x3b5baa6e	0.0033518332
26	0xbbb5aa11	-0.005543955
27	0x3c526091	0.012840406
28	0x3c728c73	0.0148039935
29	0x3cbe798c	0.023251317
30	0x3c48af9e	0.012248902
31	0xbccd65b7	-0.025072915

layernorm1.weight f4 [32]
0	0x3f7991aa	0.9748789
1	0x3f7c9764	0.98668504
2	0x3f756c27	0.9586815
3	0x3f7dfdbc	0.9921529
4	0x3f7c7dde	0.9862956
5	0x3f7e9b9a	0.9945618
6	0x3f811060	1.0083122
7	0x3f7e01a3	0.9922125
8	0x3f82a05d	1.0205189
9	0x3f7d7d3d	0.99019223
10	0x3f754467	0.958075
11	0x3f7d68b0	0.98987865
12	0x3f7a0b07	0.97673076
13	0x3f7e65b1	0.9937392
14	0x3f800773	1.0002273
15	0x3f7d2076	0.98877656
16	0x3f7ec34c	0.9951675
17	0x3f804ff1	1.0024396
18	0x3f7620bf	0.96143717
19	0x3f80a9dc	1.0051837
20	0x3f79fc25	0.9765037
21	0x3f751eb9	0.95750004
22	0x3f7c48ad	0.98548394
23	0x3f82c931	1.0217649
24	0x3f825612	1.0182517
25	0x3f79ab5e	0.9752711
26	0x3f78fc95	0.9726041
27	0x3f8168e5	1.0110136
28	0x3f7c4342	0.9854013
29	0x3f7e2134	0.99269414
30	0x3f80a202	1.0049441
31	0x3f71992b	0.9437434

layernorm1.bias f4 [32]
0	0xbc332237	-0.01093345
1	0x3c5d695a	0.013513887
2	0xbc10de94	-0.008842129
3	0xbbe90e7e	-0.0071123233
4	0xbc194bea	-0.009356478
5	0xbc3afbe9	-0.011412599
6	0x3c6b8c6f	0.014376744
7	0xbb511e09	-0.0031908771
8	0x3c3d2c00	0.011546135
9	0xbc342b19	-0.010996603
10	0xbcc4fd67	-0.024046613
11	0xbc6ea470	-0.014565572
12	0xbc5ef4dc	-0.013608184
13	0x3bbcdffd	0.005764006
14	0x3aeb5a82	0.001795605
15	0xba9f5b57	-0.0012157959
16	0xbc81b98a	-0.015835542
17	0xbc4aefd3	-0.01238628
18	0xbb5e34ad	-0.003390591
19	0x3c41bf14	0.011825342
20	0xbc9e6b3d	-0.019338245
21	0xbada20ec	-0.0016641892
22	0xbc5e52ba	-0.013569528
23	0x3c686f39	0.014186674
24	0x3c5b16a3	0.013372096
25	0xbc917cb3	-0.017759657
26	0xbd561b40	-0.05227208
27	0x3b2b8472	0.0026171473
28	0x3c8020f9	0.015640723
29	0xbbc564b7	-0.006023969
30	0x3cc20001	0.023681642
31	0xbd8b27a7	-0.067946725

blocks.0.fcn_layer.weight f4 [32, 32]
0	0x3e6ff6c2	0.23433974
1	0xbc8cdfd7	-0.017196579
2	0x3e019ca4	0.1265741
3	0x3d066a98	0.0328165
4	0x3d93268d	0.07185087
5	0xbdb264ab	-0.08710607
6	0xbdad3369	-0.08457071
7	0x3e08388d	0.13302822
8	0x3da7bfc0	0.0819087
9	0x3d6ae9ae	0.05735176
10	0xbca86775	-0.020557145
11	0xbda40ad9	-0.080098815
12	0x3dc298ba	0.095017865
13	0xbbb7315b	-0.0055906004
14	0x3e12167c	0.1426639
15	0x3dcd447a	0.100228265
16	0xbdffc932	-0.12489547
17	0xbdc09822	-0.09404017
18	0x3d90ade8	0.0706442
19	0x3d311ca2	0.043240197
20	0xbdbf2197	-0.09332579
21	0xbd873ab5	-0.06602994
22	0xbe0dcd93	-0.13847952
23	0xbce845a5	-0.028353522
24	0x3ca4b402	0.020105366
25	0xbd932534	-0.0718483
26	0x3bde0236	0.006775166
27	0xbdd0e8c7	-0.10200649
28	0x3c43f229	0.011959591
29	0xbdaf3cb7	-0.08556502
30	0xbdf47e6c	-0.119381756
31	0xbdc3a06b	-0.09552082
32	0x3d8d501d	0.06900046
33	0xbdfe02df	-0.12402891
34	0xbe18fdd6	-0.1494058
35	0x3dbe566c	0.092938274
36	0x3de70d8b	0.1128188
37	0x3dcb53b3	0.09928074
38	0x3c2cef8a	0.010555157
39	0xbdd9a035	-0.1062626
40	0xbe0fdc03	-0.14048772
41	0x3d9c06bd	0.07618473
42	0x3d2e6118	0.042573065
43	0x3de8236b	0.113348804
44	0x3e04942e	0.12947151
45	0x3da42cdb	0.08016368
46	0x3cd71489	0.02625491
47	0xbe15ec2d	-0.14640875
48	0x3bc665a4	0.006054597
49	0xbcd4c601	-0.025973322
50	0xbd5e53ea	-0.054279245
51	0x3e1bbe8d	0.15209408
52	0xbda8020b	-0.08203515
53	0x3d911f29	0.070860215
54	0xbc78104c	-0.015140604
55	0xbdd31823	-0.10307338
56	0x3de001b2	0.10937823
57	0xb9ae2491	-0.0003321511
58	0x3d8e1969	0.0693844
59	0xbe12f1e9	-0.14350094
60	0xbd38f121	-0.045151833
61	0x3d5ff59e	0.0546776
62	0x3c6a6a64	0.014307592
63	0xbd72b4bd	-0.059254397
64	0x3e1b8a9a	0.15189591
65	0xbe113907	-0.1418191
66	0xbdace737	-0.08442538
67	0x3ddef99e	0.108874545
68	0xbe276cd8	-0.16350114
69	0x3df33629	0.118755646
70	0x3e1949bf	0.14969538
71	0x3cf92461	0.030412855
72	0x3d6e596e	0.058190756
73	0x3d52b385	0.051440734
74	0xbda1c8f8	-0.0789966
75	0x3e1549f6	0.14578995
76	0xbc9e8e09	-0.019354837
77	0xbe0d9af2	-0.13828638
78	0x3de47ea7	0.111569695
79	0x3a151d5f	0.00056882756
80	0x3e06fb3c	0.13181776
81	0x3e10a107	0.14123927
82	0x3c176597	0.0092405295
83	0x3e0f04a0	0.13966608
84	0xbe0dd09d	-0.13849111
85	0xbcce7d84	-0.025206335
86	0x3de136c1	0.109967716
87	0x3dd24727	0.102674775
88	0x3b6d1fe6	0.0036182343
89	0x3d98a66e	0.07453619
90	0x3e0712e8	0.13190806
91	0xbe5ada1a	-0.21372262
92	0xbd15c505	-0.036564846
93	0x3df90dcd	0.121608354
94	0x3d60cfd2	0.054885693
95	0xbdca4302	-0.09876062
96	0x3e57ed45	0.21086605
97	0x3c47265b	0.012155141
98	0x3c6c6f49	0.014430829
99	0x3d41a1ba	0.047273375
100	0x3e036a2f	0.12833475
101	0xbdf84c71	-0.12123955
102	0xbe1c10af	-0.1524074
103	0x3d432f70	0.04765266
104	0x3df109c9	0.117694445
105	0x3dc77b58	0.09740323
106	0x3d2cf4aa	0.042225517
107	0x3e24403e	0.16040131
108	0x3dfecb42	0.12441112
109	0xbe3e2bcd	-0.18571396
110	0x3e0506e4	0.1299091
111	0x3dd2b71b	0.10288831
112	0xbdc1a57d	-0.094553925
113	0x3d569c35	0.052395064
114	0x3de6c64d	0.112682916
115	0xbe2b9874	-0.16757375
116	0x39121f33	0.00013935268
117	0x3e039a52	0.12851837
118	0x3e313704	0.17306143
119	0xbdef0cff	-0.11672401
120	0xbe05651d	-0.13026853
121	0x3e2d0e22	0.16899922
122	0xbd968bd6	-0.0735089
123	0x3de17ce0	0.11010146
124	0x3cd9016a	0.026489932
125	0x3e13c10f	0.14429115
126	0xbdabc019	-0.08386249
127	0x3e3d4b23	0.18485694
128	0x3d042c4f	0.03226882
129	0xbd077d30	-0.033078372
130	0xbe20af1b	-0.15691797
131	0x3b33ade4	0.002741688
132	0x3db976e2	0.09055878
133	0x3c0b9a18	0.0085206255
134	0xbcae50b1	-0.021278711
135	0xbe282e46	-0.16423902
136	0x3e647927	0.22311841
137	0xbe2c5b68	-0.16831744
138	0x3dcbc715	0.09950081
139	0xbd93952e	-0.07206188
140	0x3de158bf	0.11003255
141	0x3e25c928	0.16190016
142	0xbdf24892	-0.11830248
143	0xbe1affec	-0.15136689
144	0x3de081b9	0.10962243
145	0xbda412b1	-0.080113776
146	0x3d7e63e0	0.062106967
147	0xbd8e37ec	-0.0694426
148	0x3df952b4	0.121739775
149	0x3d89b9d3	0.06724896
150	0x3c20b882	0.009809615
151	0xbd86d74f	-0.065840356
152	0x3da20417	0.07910936
153	0xbdd53f96	-0.10412519
154	0x3dadd9ac	0.08488783
155	0x3d3f6324	0.046725407
156	0x3da4e6e5	0.08051852
157	0xbd7f7671	-0.062368814
158	0x3bd4e5cd	0.006497121
159	0xbdcdadbb	-0.10042902
160	0x3dd68314	0.1047422
161	0x3d0fb240	0.0350821
162	0x3e18b49e	0.1491265
163	0x3c93ad74	0.018027045
164	0xbc6b8495	-0.014374872
165	0xbb48df45	-0.0030650657
166	0x3d904238	0.0704388
167	0xbddc3fea	-0.10754378
168	0x3e31fe15	0.17382081
169	0xbd94084a	-0.072281435
170	0x3d2d1a72	0.04226155
171	0xbe0d1362	-0.13776925
172	0x3d544870	0.051826894
173	0xbd924e49	-0.07143838
174	0x3c707909	0.0146772945
175	0xbe1a81df	-0.15088604
176	0x3ca2225b	0.019791773
177	0x3c0d320c	0.008617889
178	0x3daa9d6a	0.083308056
179	0xbdc83f95	-0.09777752
180	0xbda83064	-0.08212355
181	0x3e06ecbb	0.13176243
182	0xbc8095ba	-0.015696395
183	0xbdb121b9	-0.0864901
184	0x3e3a682e	0.18203804
185	0x3cdd2728	0.02699621
186	0x3d03a903	0.032143604
187	0x3dbb2118	0.091371715
188	0xbd5c4eee	-0.05378621
189	0x3e081afd	0.13291545
190	0xbe0b2d26	-0.13591442
191	0x3df375ee	0.11887728
192	0x3e0f0a59	0.13968791
193	0x3d71f886	0.0590749
194	0xbd9be146	-0.07611327
195	0xbc860017	-0.016357465
196	0xbdad726f	-0.08469092
197	0xbcfffe34	-0.031249143
198	0xbdc19dab	-0.09453901
199	0xbdd8d925	-0.10588292
200	0x3e391041	0.18072607
201	0xbdcda1d7	-0.10040634
202	0xbdf7d3d2	-0.121009484
203	0xbc4bec5b	-0.012446488
204	0x3dc35eb1	0.09539545
205	0xbd47e2e7	-0.048800375
206	0xbdfc72e4	-0.12326601
207	0x3e05b8b1	0.13058735
208	0x3e0ed652	0.13948944
209	0x3ccd7f19	0.025085019
210	0xbd78a155	-0.060700733
211	0xbd9794bc	-0.07401416
212	0xbd8296ba	-0.06376405
213	0x3db7157b	0.08939644
214	0xbc4ff1a4	-0.012691889
215	0x3da4e28c	0.08051023
216	0x3e3db15f	0.18524693
217	0x3e23a829	0.15982117
218	0x3d799ab2	0.060938545
219	0x3c84f18b	0.016228458
220	0x3b199ff5	0.002344129
221	0xbcb499d4	-0.022046007
222	0xbd4f80cf	-0.05065995
223	0x3d74d332	0.059771724
224	0x3da1e680	0.079052925
225	0x3d945d25	0.072443284
226	0x3dca819a	0.09888001
227	0x3df91e55	0.121639885
228	0x3dac52de	0.08414243
229	0x3e05adf2	0.13054636
230	0xbda50fd8	-0.080596626
231	0xbcb164e5	-0.021654556
232	0x3c0b2ac7	0.008494086
233	0xbe053ba4	-0.13011032
234	0xbe0d3ef3	-0.13793544
235	0x3daef8ee	0.08543573
236	0x3c3d2ae5	0.011545871
237	0x3d681766	0.05666294
238	0x3dbc1413	0.09183516
239	0x3bc56083	0.006023468
240	0xbd3c0534	-0.0459034
241	0xbd41aabc	-0.047281966
242	0x3d509fd7	0.050933685
243	0xbdbf54b4	-0.09342328
244	0x3e25da36	0.16196522
245	0x3d83ed31	0.06441725
246	0x3dfc3ca4	0.12316254
247	0xbd82a2ae	-0.06378685
248	0xbe3119cc	-0.17294997
249	0xbd861286	-0.06546502
250	0x3cad9df8	0.02119349
251	0xbc218ce7	-0.009860254
252	0xbddbfe01	-0.10741807
253	0xbd8f3507	-0.06992536
254	0xbdc3447e	-0.09534548
255	0xbdca4b4d	-0.09877644

blocks.0.fcn_layer.bias f4 [32]
0	0xbcd9f917	-0.026608033
1	0x3dcbd266	0.0995224
2	0xbd95e3d7	-0.073188476
3	0xbddeac02	-0.10872652
4	0xbd446332	-0.047946163
5	0x3cf74e42	0.030188683
6	0xbd842af4	-0.06453505
7	0x3d94fcce	0.07274781
8	0xbdb92fea	-0.09042342
9	0xbe014f03	-0.12627797
10	0xbdf77452	-0.12082733
11	0x3e0854b8	0.13313568
12	0xbd19701b	-0.037460428
13	0xbd0062a4	-0.03134407
14	0x3da379a2	0.07982184
15	0xbcf9d279	-0.030495869
16	0x3d3acb0c	0.045603797
17	0xbe11a068	-0.14221346
18	0xbcaec0dc	-0.021332197
19	0xbc9253b1	-0.017862173
20	0x3d209b0b	0.03921036
21	0xbc8defa1	-0.017326178
22	0x3d96af06	0.07357602
23	0x3b1f156b	0.002427424
24	0x3e4b66a8	0.19863379
25	0x3d6be114	0.057587698
26	0x3e36bf61	0.17846443
27	0xbe075f36	-0.13219914
28	0xbcb6ab54	-0.022298492
29	0xbd9030a8	-0.070405304
30	0x3bcc11ef	0.006227724
31	0x3dcbd360	0.09952426

blocks.0.layer_norm.weight f4 [32]
0	0x3f804019	1.0019561
1	0x3f8602d6	1.0469615
2	0x3f887a4f	1.0662326
3	0x3f7eac77	0.9948191
4	0x3faccc91	1.3499929
5	0x3f9c96c2	1.2233508
6	0x3fa11d4e	1.2587068
7	0x3f801242	1.0005572
8	0x3f9132e9	1.1343662
9	0x3f86bef7	1.0527028
10	0x3f862dbb	1.0482706
11	0x3f7b2147	0.9809765
12	0x3f88a9ce	1.067682
13	0x3f8b2106	1.0869453
14	0x3f7fd396	0.9993223
15	0x3f7a2490	0.9771204
16	0x3f952309	1.1651317
17	0x3f9f4900	1.2444153
18	0x3f7ed01b	0.99536294
19	0x3f9fcb84	1.2483983
20	0x3fa14616	1.2599514
21	0x3f98eb55	1.1946818
22	0x3f9a31fe	1.2046506
23	0x3fb189ef	1.3870219
24	0x3f86a613	1.0519432
25	0x3f9a7ce6	1.2069366
26	0x3f906dd8	1.1283522
27	0x3f894e32	1.0726988
28	0x3f85d1e4	1.0454679
29	0x3f85490f	1.0412921
30	0x3f7f79ee	0.99795425
31	0x3f984a1e	1.1897619

blocks.0.layer_norm.bias f4 [32]
0	0xba2e5ce7	-0.0006651417
1	0x3d6239a7	0.055230763
2	0x3d2b99ec	0.04189484
3	0xbc921360	-0.017831504
4	0x3e8a4693	0.2700697
5	0x3e636786	0.2220746
6	0x3e70f575	0.23531134
7	0x3bf6a973	0.007527524
8	0x3dbc1118	0.09182948
9	0x3d68505c	0.05671726
10	0x3d3dff0a	0.046385802
11	0xbc9566bf	-0.01823747
12	0x3d443c38	0.04790899
13	0x3da38a80	0.07985401
14	0xbb3c1976	-0.00287017
15	0xbd020747	-0.03174522
16	0x3dbca5c0	0.09211302
17	0x3e70774c	0.23483008
18	0xbc480db8	-0.012210302
19	0x3e703d86	0.2346097
20	0x3e72e2ef	0.23719381
21	0x3e5838ef	0.21115468
22	0x3e56e195	0.2098449
23	0x3e93417f	0.28760907
24	0x3d0f7913	0.035027575
25	0x3e6198ab	0.22030894
26	0x3dbae38a	0.09125431
27	0x3d85d26c	0.065342754
28	0x3cf76ab0	0.03020224
29	0x3d555528	0.052083164
30	0x37e3d324	2.7158829e-05
31	0x3e5a9c5b	0.21348707

last_layer.weight f4 [1, 32]
0	0xbdb5ee54	-0.08883348
1	0x3e4342e6	0.19068488
2	0x3e5c60f9	0.21521367
3	0x3da93280	0.08261585
4	0xbeabf77a	-0.33587247
5	0xbea25efa	-0.31713086
6	0xbea79c82	-0.32736593
7	0xbd0507d5	-0.032478172
8	0x3e0d6703	0.13808827
9	0x3e07905b	0.13238661
10	0x3e5457de	0.20736644
11	0xbda9ed73	-0.08297243
12	0x3e59da57	0.21274696
13	0x3d6dbb56	0.058039986
14	0xbda0d776	-0.07853596
15	0xbdd752c2	-0.10513832
16	0x3dab8bae	0.08376251
17	0xbe9637e4	-0.29339516
18	0xbe2758d4	-0.16342479
19	0xbe9a5c0d	-0.30148354
20	0xbe9a0ca6	-0.30087775
21	0xbeace311	-0.33766988
22	0xbeb6befb	-0.35692582
23	0xbeadce83	-0.33946618
24	0x3e3b615c	0.18298858
25	0xbe9ed89d	-0.31024638
26	0x3e314c70	0.17314315
27	0x3e719af9	0.23594274
28	0x3e1cb674	0.15303975
29	0x3db857b1	0.09001101
30	0xbc6ac2b0	-0.014328644
31	0xbea7d325	-0.32778278
