orchestrator/assets/models/wakeword/sage_wakeword.tflite (tflite, 206976 bytes, 9 tensors)

arith.constant f4 [1, 32]
-0.36325493 -0.3391813 0.16968143 -0.37534276 0.19239317 -0.34685862 0.17539433 -0.34374416
0.04945678 0.045072928 0.17627744 -0.057492238 0.21504337 0.07544741 -0.38262078 0.17099991
0.023133883 0.03975839 0.18066528 -0.010294381 0.10980047 -0.049168922 0.13833974 -0.34084418
0.004345413 -0.3615142 0.0845027 -0.35078672 0.1421967 0.2867013 0.093562715 0.07122171
00000000: 8dfc b9be 2ca9 adbe f8c0 2d3e ed2c c0be
00000010: b702 453e 7497 b1be 929a 333e 3cff afbe
00000020: 3193 4a3d 649e 383d 1382 343e fb7c 6bbd
00000030: 5434 5c3e 2c84 9a3d dfe6 c3be 9a1a 2f3e
00000040: 4583 bd3c b2d9 223d 5200 393e c3a9 28bc
00000050: 12df e03d 5a65 49bd efa8 0d3e 2183 aebe
00000060: f763 8e3b 6418 b9be c00f ad3d 519a b3be
00000070: 039c 113e 83ca 923e cf9d bf3d b0dc 913d

arith.constant1 f4 [32, 32]
0.10315972 0.17038138 0.10086081 -0.12598562 -0.09807241 0.015526993 0.13822542 0.09122062
-0.05000552 0.108294174 -0.08643715 0.072133765 -0.16734932 0.12551524 0.044333033 -0.041171245
-0.04784707 0.09784548 -0.16769236 0.09325668 -0.13957936 0.029921306 0.121735066 0.06119336
0.08327561 0.06746699 0.063525304 0.057334658 0.077784926 0.08213627 -0.121526085 -0.17680953
0.17211248 -0.10941455 0.098263 -0.00066837604 0.025560478 -0.096731514 0.18406585 0.001744321
0.03991267 -0.09168746 -0.049826026 0.085479006 -0.08059524 -0.064732715 -0.12112492 0.016290668
-0.001538856 0.13877389 -0.1449652 -0.036969263 0.07234622 0.0597122 0.18250333 0.034942586
0.010787464 -0.020924808 0.0023088374 0.12226929 0.0426206 0.033257265 -0.13277297 0.11184579
0.0031855153 -0.028700635 -0.011701601 -0.06687438 -0.16200644 -0.12522532 -0.039783128 -0.019414557
0.011645127 -0.086020626 0.05051184 -0.0072315494 0.12237036 -0.081936136 -0.0159706 -0.11344816
0.14295149 -0.07021546 -0.07575519 -0.0130472025 0.09722193 -0.1245434 -0.16015859 0.12889174
0.08609676 0.06852264 -0.026956877 0.13382573 -0.11809764 0.045996536 -0.090549216 0.10380601
0.18203484 0.035951957 0.08330722 -0.02996103 -7.07911e-05 -0.0544485 0.047203027 -0.071577445
-0.10070932 0.027887022 -0.0545927 0.1214338 -0.15291254 -0.09213774 0.019103894 0.039100494
0.14260179 0.14765093 0.05280852 -0.134599 0.16552414 -0.0009925402 -0.11008373 0.039753597
-0.08192443 0.18382767 -0.067477 -0.04089666 -0.10334258 0.18167809 -0.122396894 0.028782079
0.02767101 -0.006888781 -0.067755446 -0.06891033 -0.015660446 0.15959337 -0.097305626 -0.05247372
0.025957158 -0.06294267 0.15438503 0.104953304 -0.078737944 -0.11052688 0.15808247 -0.05700282
0.05036267 -0.1513442 -0.038077414 -0.14093325 0.053108916 0.029673591 -0.055906285 -0.09961984
-0.079394944 0.004182799 -0.023373922 0.16007744 -0.16394454 0.052771438 0.038739473 0.11167501
-0.036025662 -0.12458717 -0.090789445 -0.18025498 0.16330321 0.005845176 0.016275564 0.15093327
0.0849991 -0.120472774 0.04026621 0.09914688 -0.18881539 0.01957201 0.12010862 -0.023359727
0.094567396 0.14514987 -0.010327349 0.0007589716 0.15160836 0.027936112 0.03811775 -0.09415498
0.09335678 0.12267991 -0.13191359 0.11818578 -0.035570472 -0.13430089 -0.095910795 -0.09875568
0.053276557 0.055470582 0.018536996 0.052186925 0.10362388 -0.056055136 0.040221762 0.08946405
0.057964195 0.124572754 0.16493784 0.06364111 0.23440701 0.0015429597 0.15710829 -0.05976188
0.0413672 -0.060400676 0.15005197 -0.08904756 0.03115318 -0.009602279 -0.13350941 0.09442206
-0.09174968 0.018190216 0.01707651 0.071458794 -0.07157583 0.03919361 0.10039649 0.09841577
0.021116389 -0.03325904 0.10611569 -0.08930541 -0.07354492 0.145842 0.025075154 -0.100031205
-0.071850546 0.025428744 0.15244138 0.1151729 -0.12033971 -0.07341618 0.18113671 0.12420679
-0.14754896 0.07270554 0.050691355 -0.0089322915 -0.16369939 0.08068855 -0.12146061 -0.13673
-0.105252676 0.117818676 -0.022766287 -0.0020722377 0.12554897 0.13431446 -0.16650711 0.10465207
00000000: 6745 d33d 7578 2e3e 1d90 ce3d 6002 01be
00000010: 30da c8bd ee64 7e3c f78a 0d3e e0d1 ba3d
00000020: 97d2 4cbd 56c9 dd3d f605 b1bd deba 933d
00000030: 9f5d 2bbe 1187 003e 8e96 353d 2ea3 28bd
00000040: 4afb 43bd 3663 c83d 8cb7 2bbe 5cfd be3d
00000050: e4ed 0ebe 871d f53c 3c50 f93d e3a5 7a3d
00000060: 678c aa3d 222c 8a3d 8e19 823d bfd7 6a3d
00000070: b44d 9f3d 1037 a83d abe2 f8bd 8f0d 35be
00000080: 413e 303e bc14 e0bd 1d3e c93d f535 2fba
00000090: 3564 d13c 2c1b c6bd c27b 3c3e b3a1 e43a
000000a0: 787b 233d a3c6 bbbd 6016 4cbd 9e0f af3d
000000b0: 1e0f a5bd 9692 84bd 5810 f8bd 0274 853c
000000c0: 70b3 c9ba be1a 0e3e c271 14be 156d 17bd
000000d0: 412a 943d c894 743d 27e2 3a3e f51f 0f3d
000000e0: e7bd 303c 816a abbc dd4f 173b 5268 fa3d
000000f0: f092 2e3d c538 083d a3f5 07be 680f e53d
00000100: 14c4 503b 981d ebbc 12b8 3fbc 6ff5 88bd
00000110: 04e5 25be 113b 00be a2f3 22bd 470b 9fbc
00000120: 34cb 3e3c 952b b0bd 81e5 4e3d a2f6 ecbb
00000130: 509d fa3d 22ce a7bd c7d4 82bc 8257 e8bd
00000140: e061 123e 20cd 8fbd 8925 9bbd efc3 55bc
00000150: 4b1c c73d 9c10 ffbd 9d00 24be 32fc 033e
00000160: 8053 b03d 9955 8c3d abd4 dcbc 9d09 093e
00000170: 2ddd f1bd dd66 3c3d de71 b9bd 3f98 d43d
00000180: 5767 3a3e 5c42 133d fa9c aa3d d670 f5bc
00000190: af75 94b8 6405 5fbd f657 413d 3297 92bd
000001a0: b040 cebd 5373 e43c 989c 5fbd 49b2 f83d
000001b0: 1b95 1cbe b6b2 bcbd c57f 9c3c d727 203d
000001c0: 3406 123e ce31 173e bf4d 583d 52d4 09be
000001d0: 297f 293e 1f18 82ba 9473 e1bd abd4 223d
000001e0: ffc7 a7bd 523d 3c3e 6231 8abd 4283 27bd
000001f0: 46a5 d3bd d209 3a3e 39ab fabd 65c8 eb3c
00000200: 50ae e23c 49bb e1bb 5ec3 8abd dc20 8dbd
00000210: 564a 80bc 726c 233e 2c48 c7bd afee 56bd
00000220: 1ba4 d43c 16e8 80bd 1c17 1e3e c2f1 d63d
00000230: 5c41 a1bd eb5b e2bd 5fe0 213e ca7b 69bd
00000240: 1649 4e3d f9f9 1abe 10f7 1bbd ce50 10be
00000250: bc88 593d 0816 f33c fdfd 64bd 7d05 ccbd
00000260: d199 a2bd dc0f 893b ab7a bfbc 57eb 233e
00000270: 14e1 27be dd26 583d 48ad 1e3d deb5 e43d
00000280: a58f 13bd 8f27 ffbd d1ef b9bd c394 38be
00000290: f538 273e e488 bf3b 5554 853c 408e 1a3e
000002a0: 0214 ae3d 6eba f6bd 2eee 243d 850d cb3d
000002b0: d258 41be 7b55 a03c 82fb f53d e65c bfbc
000002c0: 8dac c13d 2ba2 143e 0b34 29bc b9f5 463a
000002d0: 393f 1b3e 46da e43c 5c21 1c3d 53d4 c0bd
000002e0: d731 bf3d 9b3f fb3d 5b14 07be 630b f23d
000002f0: 58b2 11bd 2c86 09be e16c c4bd 6b40 cabd
00000300: 8538 5a3d 1f35 633d e6da 973c f5c1 553d
00000310: c238 d43d 129a 65bd 93bf 243d ee38 b73d
00000320: dd6b 6d3d 0020 ff3d 77e5 283e 4556 823d
00000330: 6408 703e 233d ca3a ffe0 203e e0c8 74bd
00000340: a770 293d b366 77bd 39a7 193e 915e b6bd
00000350: f434 ff3c e152 1dbc b1b6 08be 5a60 c13d
00000360: 42e7 bbbd a603 953c 09e4 8b3c fd58 923d
00000370: 5996 92bd 7b89 203d ad9c cd3d 358e c93d
00000380: 47fc ac3c a23a 08bd 2f53 d93d c1e5 b6bd
00000390: b89e 96bd 9b57 153e 696a cd3c 29dd ccbd
000003a0: 6126 93bd f14f d03c 9819 1c3e c5df eb3d
000003b0: aa74 f6bd 395b 96bd e77b 393e 2160 fe3d
000003c0: 1317 17be a4e6 943d bda1 4f3d bf58 12bc
000003d0: d0a0 27be 0a40 a53d 57c0 f8bd f302 0cbe
000003e0: b78e d7bd eb4a f13d 5d80 babc 61ce 07bb
000003f0: e98f 003e bb89 093e d780 2abe d353 d63d

arith.constant2 f4 [32, 1536]
0.012549547 0.02049419 -0.0055273967 0.014073715 -0.03509166 0.010901683 0.01216983 0.0025093264
0.008299681 0.011662598 0.010344593 0.0017652011 0.032475695 0.0025211128 -0.014419795 -0.010603766
0.014193741 -0.0376127 0.017134337 0.00029596183 -0.0034147615 -0.0132515635 -5.003497e-05 -0.03813176
0.03257052 -0.023890713 0.004291239 0.031299226 -0.01663449 -0.0030667833 -0.010958 -0.0038057466
0.022496996 -0.0056916582 0.0025888546 -0.014949323 -0.00036056008 0.013154869 0.0070530972 0.024634926
0.012647413 0.007277961 0.014078198 0.008081131 -0.0064270007 0.0019776854 0.009228097 0.0039372174
0.019262237 -0.032904804 -0.027094051 0.0024645084 0.00634757 0.012472964 -0.004755411 0.005361326
0.012482156 -0.019725349 -0.0040106303 0.0058463975 -0.009285855 0.03406493 -0.005573586 -0.005446591
-0.011039104 0.004959045 -0.008598124 -0.0066677965 -0.044112515 -0.02190534 -0.051404286 0.025064757
0.008980072 -0.020053718 -0.0008746719 0.00034318486 -0.023082355 0.015259651 -0.009164241 -0.018033767
-0.018815894 0.007143468 0.004856223 -0.011591776 -0.010162966 -0.0040477575 0.0027985803 -0.0020223104
-0.022059165 0.0021289857 0.00043581144 0.004842533 -0.02610781 0.006606017 -0.013748896 -0.010517893
-0.0074551934 0.026919896 0.009368706 0.013222331 -0.002382981 -0.02637098 -0.0068634376 0.019106943
-0.0050205244 -0.0041162125 0.022216389 0.04685549 0.03437387 0.021176003 -0.02736805 0.010148156
0.033065096 -0.020422053 -0.00727718 -0.016918458 0.002750822 0.028095389 -0.003837354 -0.0047037895
0.009859458 0.0051161516 0.024165543 -0.006841921 0.021902459 0.01845707 -0.017928217 -0.009364817
-0.008006932 -0.04688165 0.028029712 0.0112403175 -0.0054723425 -0.001506243 -0.0043275375 -0.009266667
-0.019248193 0.00063253037 0.013891421 -0.02490778 -0.005353112 -0.0036376864 -0.00031733373 -0.0128409285
0.023115505 -0.023114096 0.005798524 -0.002196716 -0.022057638 -0.007325991 0.012933552 -0.0131989755
0.010231407 0.0005157321 -0.019066578 0.02286645 0.01177335 0.037456762 0.01733101 0.008597888
-0.0030801527 -0.007719325 0.022778682 -0.00831672 -0.0051485244 -0.006888718 -0.018428111 0.02744766
-0.0076347985 -0.027534077 0.022237152 0.000851021 0.012557543 -0.009684656 -0.02028502 -0.0051302933
-0.022277195 -0.0010616485 0.025757216 -0.0017611943 -0.009384742 0.040022958 -0.013523877 0.01757073
-0.0011226134 0.0024983038 -0.00870107 0.0076070493 -0.007842989 -0.0009768986 0.0077197924 0.02663107
-0.0063686077 0.0052856915 -0.0020320253 0.026398493 -0.025268482 -0.002877419 0.021191398 -0.021461675
0.0039121737 0.023644006 0.017365955 0.013845544 -0.012635477 -0.02393758 -0.03758252 -0.018469917
0.01735218 0.018133909 -0.019308977 -0.01844161 0.021535808 -0.008693571 0.014437901 -0.0049185427
-0.014275169 0.0046180477 -0.0013710798 -0.00043203504 0.029318333 0.023407295 0.0073461374 0.0054004346
0.018141063 -0.028697804 -0.0031157348 -0.027070174 0.013178603 0.007253319 -0.009730438 0.011791316
-0.00045129226 0.031110974 0.026752517 -0.018437836 0.011217806 -0.021420395 0.0038857502 -0.004119454
0.025888605 0.010778537 -0.031118516 -0.014818736 -0.0048147435 -0.0014995005 0.0065199886 0.019470135
-0.0142498575 -0.015422894 0.0073038037 -0.028320277 -0.026851995 0.03936556 -0.005907237 0.024115205
00000000: 9d9c 4d3c 6ee3 a73c 2a1f b5bb 7095 663c
00000010: 46bc 0fbd f99c 323c f763 473c 8373 243b
00000020: 63fb 073c 7b14 3f3c 5e7c 293c 525e e73a
00000030: 3c05 053d 4139 253b 0141 6cbc 6bbb 2dbc
00000040: dd8c 683c c60f 1abd 4f5d 8c3c 532b 9b39
00000050: 31ca 5fbb 161d 59bc a4dc 51b8 0c30 1cbd
00000060: aa68 053d 75b6 c3bc 869d 8c3b 9e33 003d
00000070: 0e45 88bc 16fc 48bb 2f89 33bc d569 79bb
00000080: 9f4b b83c 1781 babb c6a9 293b 01ee 74bc
00000090: 8e09 bdb9 8587 573c ab1d e73b 2fcf c93c
000000a0: 1837 4f3c f67b ee3b 3ea8 663c b866 043c
000000b0: 9799 d2bb 0e9c 013b 7231 173c c603 813b
000000c0: d7cb 9d3c 30c7 06bd 58f4 ddbc 9783 213b
000000d0: 47ff cf3b 675b 4c3c 47d3 9bbb 10ae af3b
000000e0: f581 4c3c 0e97 a1bc 9b6b 83bb 2393 bf3b
000000f0: b323 18bc ab87 0b3d a1a2 b6bb 5179 b2bb
00000100: 5cdd 34bc 7c7f a23b 25df 0cbc 887d dabb
00000110: 53af 34bd d472 b3bc 4d8d 52bd 9b54 cd3c
00000120: 2721 133c b247 a4bc 3d4a 65ba 7eed b339
00000130: 3517 bdbc 9d03 7a3c 9d25 16bc 8dbb 93bc
00000140: ca23 9abc c113 ea3b f320 9f3b 6feb 3dbc
00000150: 9282 26bc 0da3 84bb 6368 373b bd88 04bb
00000160: 6cb5 b4bc 7486 0b3b 9f7d e439 1cae 9e3b
00000170: 0ce0 d5bc 4977 d83b 0d43 61bc 3e53 2cbc
00000180: b24a f4bb 1d87 dc3c 337f 193c 7aa2 583c
00000190: c92b 1cbb f407 d8bc b0e6 e0bb 2a86 9c3c
000001a0: 3683 a4bb 4be1 86bb 25ff b53c 8beb 3f3d
000001b0: 9dcb 0c3d 4c79 ad3c f632 e0bc 7444 263c
000001c0: 446f 073d 264c a7bc 6975 eebb 9498 8abc
000001d0: 2347 343b 4d28 e63c 1e7c 7bbb 3f22 9abb
000001e0: 9089 213c 64a5 a73b d1f6 c53c 3132 e0bb
000001f0: c96c b33c 4833 973c 32de 92bc e46e 19bc
00000200: 822f 03bc f906 40bd 919e e53c 4f29 383c
00000210: 5651 b3bb 216d c5ba 04ce 8dbb 38d3 17bc
00000220: 63ae 9dbc 65d0 253a d898 633c 670b ccbc
00000230: 2869 afbb 4066 6ebb d05f a6b9 c262 52bc
00000240: ba5c bd3c c659 bdbc 8b01 be3b c7f6 0fbb
00000250: 38b2 b4bc de0e f0bb 40e7 533c 8440 58bc
00000260: a2a1 273c 3232 073a 8331 9cbc 6c52 bb3c
00000270: 02e5 403c 436c 193d c3f9 8d3c 28de 0c3c
00000280: 63dc 49bb 64f2 fcbb 5c9a ba3c da42 08bc
00000290: f4b4 a8bb c1ba e1bb 8df6 96bc ead9 e03c
000002a0: 552d fabb 258f e1bc b02a b63c 0d17 5f3a
000002b0: 27be 4d3c 64ac 1ebc c52c a6bc 051c a8bb
000002c0: aa7e b6bc 0327 8bba cc00 d33c e0d7 e6ba
000002d0: 76c2 19bc 1def 233d 4093 5dbc 7ef0 8f3c
000002e0: a824 93ba 95ba 233b ef8e 0ebc 8e44 f93b
000002f0: e17f 00bc 470b 80ba 50f6 fc3b 6729 da3c
00000300: c1af d0bb 9833 ad3b ba2b 05bb a741 d83c
00000310: d9ff cebc 1593 3cbb 9599 ad3c 65d0 afbc
00000320: b131 803b 13b1 c13c 0c43 8e3c 6cd8 623c
00000330: 0805 4fbc be18 c4bc 21f0 19bd 394e 97bc
00000340: 2926 8e3c 908d 943c dc2d 9ebc dc12 97bc
00000350: dd6b b03c 7b6f 0ebc f28c 6c3c ba2b a1bb
00000360: 66e2 69bc fe52 973b ceb5 b3ba c382 e2b9
00000370: 002d f03c a8c0 bf3c deb7 f03b 21f6 b03b
00000380: 919c 943c a817 ebbc 5b31 4cbb 45c2 ddbc
00000390: 11eb 573c 40ad ed3b 6a6c 1fbc 5d30 413c
000003a0: 6c9b ecb9 71dc fe3c 1828 db3c f20a 97bc
000003b0: e3ca 373c d379 afbc 12a8 7e3b 7cfc 86bb
000003c0: 5714 d43c 7698 303c 42ec febc 49ca 72bc
000003d0: ffc4 9dbb e38a c4ba a1a5 d53b d57f 9f3c
000003e0: 3c78 69bc 4eb0 7cbc bf54 ef3b edff e7bc
000003f0: b7f8 dbbc c83d 213d 7f91 c1bb 408d c53c

model_8/tf.__operators__.add/AddV2/y f4 [32]
-0.015000161 -0.005408431 0.014621169 -0.0149376495 0.021668322 0.010394025 0.010331085 0.0034903903
-0.026382415 0.0013390258 0.022881526 -0.008201864 -0.010298809 -0.01214162 -0.015686993 0.019624695
-0.0029237338 -0.01095667 -0.019937668 0.0135182375 -0.023696668 -0.008568644 0.017480334 -0.0051604356
0.025438268 -0.0038627558 0.016994229 -0.012839634 0.014438833 0.010422036 -0.011967139 0.021521822
00000000: 3cc3 75bc 3539 b1bb a18d 6f3c 0bbd 74bc
00000010: c481 b13c b34b 2a3c b643 293c 08bf 643b
00000020: ef1f d8bc 4082 af3a 0a72 bb3c 1c61 06bc
00000030: 56bc 28bc a5ed 46bc 0282 80bc f8c3 a03c
00000040: 1d9c 3fbb 9b83 33bc 5254 a3bc 997b 5d3c
00000050: 841f c2bc 7f63 0cbc eb32 8f3c df18 a9bb
00000060: ea63 d03c 4a26 7dbb 7b37 8b3c 545d 52bc
00000070: db90 6c3c 30c1 2a3c d211 44bc 884e b03c

model_8/tf.__operators__.add_1/AddV2/y f4 [32]
-0.14203933 -0.09744786 -0.04791671 0.053646732 0.17025495 0.112441 0.06911035 0.008489118
0.04732142 -0.04103028 0.08003969 -0.122214146 0.1069918 0.15757528 0.052671127 0.063570455
-0.151874 -0.021647668 0.115269706 0.030886004 -0.0047275093 0.00012527776 -0.013234917 -0.029929519
-0.024318682 0.075917125 -0.032530945 -0.08209462 0.09704556 -0.15346004 -0.13481034 0.14293964
00000000: c272 11be be92 c7bd 5044 44bd adbc 5b3d
00000010: 5057 2e3e 7847 e63d ba89 8d3d f115 0b3c
00000020: 1bd4 413d 5e0f 28bd d9eb a33d 694b fabd
00000030: 841e db3d 6a5b 213e aebd 573d 3a31 823d
00000040: dc84 1bbe 7356 b1bc 8612 ec3d a504 fd3c
00000050: 39e9 9abb fe5c 0339 44d7 58bc c02e f5bc
00000060: f937 c7bc 707a 9b3d 2b3f 05bd 3921 a8bd
00000070: d3bf c63d a124 1dbe b90b 0abe c55e 123e

model_8/tf.math.add_2/Add/y f4 [1, 32]
0.005056145 -0.03593853 0.009160778 -0.0036993292 -0.021803396 0.03401964 0.027718596 -0.034164134
-0.032064203 -0.0054585836 -0.033527914 -0.0077363094 0.007817718 0.009010374 -0.009099093 0.025321128
-0.031209772 0.009648433 0.00049572886 -0.027858878 0.043772615 -0.0051724943 -0.013648081 0.0031734896
0.022195045 0.0058170585 -0.03540642 0.058109395 -0.003191553 -0.0089203585 0.0055321 0.0024799234
00000000: 05ae a53b 4834 13bd 1617 163c 7270 72bb
00000010: 099d b2bc 2e58 0b3d 1c12 e33c b1ef 0bbd
00000020: c155 03bd ebdd b2bb 9154 09bd de80 fdbb
00000030: e315 003c 3fa0 133c 5d14 15bc 416e cf3c
00000040: a3ab ffbc 7614 1e3c cdf3 013a 4d38 e4bc
00000050: ea4a 333d 077e a9bb 339c 5fbc 52fa 4f3b
00000060: 62d2 b53c 069d be3b 5206 11bd 1e04 6e3d
00000070: 6029 51bb b226 12bc 9e46 b53b 3686 223b

model_8/tf.math.add_5/Add/y f4 [1, 32]
0.27131817 0.29967391 0.056156382 0.24574481 0.03190932 0.25451955 0.037364192 0.28847235
0.026374348 0.018832827 0.024098707 -0.028621195 0.07455706 0.034640178 0.27320793 0.017541446
-0.0077126957 -0.042043872 0.056021195 0.011057296 0.027978577 -0.053734425 0.009164975 0.25531748
-0.013871497 0.25376222 -0.09991917 0.30933586 0.005846898 0.102027126 -0.017799791 -0.084184125
00000000: 37ea 8a3e dc6e 993e 3c04 663d 87a4 7b3e
00000010: 59b3 023d 6350 823e 320b 193d a6b2 933e
00000020: 040f d83c 4d47 9a3c a76a c53c ff76 eabc
00000030: 5fb1 983d dce2 0d3d e9e1 8b3e 14b3 8f3c
00000040: c8ba fcbb 3236 2cbd 7b76 653d a929 353c
00000050: 5433 e53c a118 5cbd b128 163c f9b8 823e
00000060: 4645 63bc 1fed 813e 6ca2 ccbd 4561 9e3e
00000070: 5697 bf3b 99f3 d03d ded0 91bc ba68 acbd

model_8/tf.math.multiply_10/Mul/y f4 [1, 32]
0.9876485 0.95393026 0.9816213 0.99382013 0.97955555 1.00177 1.0078279 0.973482
0.9819732 0.910351 0.9839661 0.9814293 1.051986 1.000107 0.99055505 1.0253974
0.9619221 1.00709 0.983065 0.9728814 0.97900665 0.982169 1.0047425 0.9960945
1.0246474 1.0042888 0.9859297 0.99477804 0.99667656 1.00147 1.0065314 1.0002831
00000000: 88d6 7c3f c634 743f 894b 7b3f ff6a 7e3f
00000010: 27c4 7a3f 003a 803f 8100 813f 1e36 793f
00000020: 9862 7b3f c30c 693f 34e5 7b3f f33e 7b3f
00000030: 7aa7 863f 8203 803f 0495 7d3f 3940 833f
00000040: 8740 763f 53e8 803f 26aa 7b3f c10e 793f
00000050: 2ea0 7a3f 6d6f 7b3f 679b 803f 0d00 7f3f
00000060: a527 833f 898c 803f e465 7c3f c6a9 7e3f
00000070: 3226 7f3f 2b30 803f 05d6 803f 4709 803f

model_8/tf.math.multiply_22/Mul/y f4 [1, 32]
1.3110682 1.3658938 1.0772848 1.2383481 1.0380859 1.2296599 1.0210626 1.3478725
1.0592078 1.0439558 1.0918535 0.96290666 1.0703843 1.0583043 1.3359601 1.0556833
1.0060561 0.9547903 1.1094067 1.0000994 1.0736562 0.9776851 1.0833381 1.2677811
0.987984 1.2389286 0.9580729 1.3879714 1.0137883 1.1440054 1.0186675 0.9690112
00000000: 15d1 a73f 9cd5 ae3f 78e4 893f 3182 9e3f
00000010: 00e0 843f 7f65 9d3f 2eb2 823f 1687 ac3f
00000020: 1f94 873f 58a0 853f dbc1 8b3f 0d81 763f
00000030: 5a02 893f 8476 873f be00 ab3f a120 873f
00000040: 72c6 803f 236d 743f 0a01 8e3f 4203 803f
00000050: 916d 893f 9249 7a3f d3aa 8a3f a746 a23f
00000060: 85ec 7c3f 3695 9e3f 4444 753f 0ca9 b13f
00000070: d1c3 813f c56e 923f b263 823f 1e11 783f
